weights/te50st10lr0.0009b16_best.pt (torch, 33857 bytes, 26 tensors)

gcn_layer1.weight f4 [2, 16]
-0.18348657 0.25808397 0.30321977 0.15938753 -0.086908594 -0.16860236 0.27464685 -0.08638218
-0.384581 -0.19879042 0.079599105 0.2199079 -0.024902795 -0.2463962 0.4295003 -0.1478451
0.22499369 -0.18179558 -0.08559522 -0.067291476 -0.30804732 -0.2661801 0.19439398 -0.27652118
-0.020092811 -0.145572 0.2811407 -0.22650985 -0.23535728 0.1307719 0.120130256 0.0056440453
00000000: e7e3 3bbe 9523 843e 9f3f 9b3e 7c36 233e
00000010: 22fd b1bd 19a6 2cbe 839e 8c3e 24e9 b0bd
00000020: cde7 c4be b78f 4bbe db04 a33d 892f 613e
00000030: f200 ccbc 494f 7cbe 77e7 db3e b564 17be
00000040: bf64 663e 9f28 3abe 8c4c afbd 1dd0 89bd
00000050: 61b8 9dbe c248 88be 370f 473e 2f94 8dbe
00000060: ae99 a4bc d410 15be adf1 8f3e 33f2 67be
00000070: 8001 71be 12e9 053e da06 f63d aff1 b83b

gcn_layer1.bias f4 [16]
-0.11589303 0.13749819 0.13218696 0.12580927 0.13965657 0.07395418 -0.039313972 0.008414124
0.18207905 -0.1303235 -0.026598819 0.10262525 0.018933984 0.085406505 -0.19199994 0.17935513
00000000: 5359 edbd 53cc 0c3e 055c 073e 25d4 003e
00000010: 2202 0f3e 4a75 973d b007 21bd 65db 093c
00000020: ee72 3a3e 8673 05be c4e5 d9bc 302d d23d
00000030: 711b 9b3c 9be9 ae3d a29b 44be dfa8 373e

gcn_layer1.batchnorm.weight f4 [100]
1.0057312 1.1213603 0.9808221 0.9548347 0.9710721 1.0368456 1.0499915 1.0338079
0.9926841 1.0348357 1.0413804 1.0364339 1.0127089 0.9782888 0.98210377 1.0045382
1.0087807 0.97242683 1.0109608 1.0377009 1.0093467 1.0432979 1.0633658 0.96042484
1.0170203 1.0104641 1.004657 1.004882 1.0125464 1.0205232 1.0326358 1.0296264
0.985038 1.0032903 0.99765974 0.9939792 1.0194895 1.0218779 1.0311111 1.0346433
1.0339721 1.0368087 0.999595 0.9941925 1.012962 1.0113657 1.0086178 1.0204273
1.0322106 1.0369192 1.058739 1.0432384 1.0477036 1.025618 1.026492 1.0078858
1.0203799 1.0100402 0.99497825 1.0118414 1.0260367 1.0436183 1.0627464 0.9654172
0.98540187 0.9891285 0.9875149 1.0225904 1.0459499 1.0373522 1.026032 1.0249038
1.0779166 1.0810119 1.0230759 1.0431895 1.0392839 1.031932 1.0280981 1.0107288
1.0223746 1.0356631 1.0178267 1.0327672 1.0436404 1.0425353 1.0148019 1.0215431
1.0210811 1.0855099 1.0780747 0.9968948 0.9857415 1.0079926 1.0807111 0.9855911
1.047834 1.0457934 0.9929033 1.06626
00000000: cdbb 803f bc88 8f3f 2817 7b3f 0c70 743f
00000010: 2e98 783f 5bb7 843f 1f66 863f d153 843f
00000020: 8c20 7e3f 7f75 843f f44b 853f dea9 843f
00000030: 72a0 813f 2371 7a3f 276b 7b3f b594 803f
00000040: ba1f 813f f7f0 783f 2a67 813f 62d3 843f
00000050: 4632 813f c98a 853f 5f1c 883f 67de 753f
00000060: b92d 823f e356 813f 9a98 803f f99f 803f
00000070: 1f9b 813f 81a0 823f 692d 843f ccca 833f
00000080: 732b 7c3f d16b 803f a166 7f3f 6c75 7e3f
00000090: a27e 823f e5cc 823f 73fb 833f 316f 843f
000000a0: 3359 843f 26b6 843f 75e5 7f3f 6683 7e3f
000000b0: bda8 813f 6e74 813f 631a 813f 5d9d 823f
000000c0: 7a1f 843f c5b9 843f c284 873f d688 853f
000000d0: 271b 863f 7347 833f 1764 833f 6702 813f
000000e0: cf9b 823f ff48 813f e5b6 7e3f 0584 813f
000000f0: 2c55 833f 4995 853f 1308 883f 9525 773f
00000100: 4c43 7c3f 8637 7d3f c7cd 7c3f 3ee4 823f
00000110: b0e1 853f f5c7 843f 0455 833f 0c30 833f
00000120: 2cf9 893f 995e 8a3f 27f4 823f 3c87 853f
00000130: 4107 853f 5916 843f b898 833f 905f 813f
00000140: 2cdd 823f 9c90 843f 2548 823f b731 843f
00000150: 0296 853f cc71 853f 07e5 813f edc1 823f
00000160: c9b2 823f fdf1 8a3f 5afe 893f 7f34 7f3f
00000170: 8e59 7c3f e705 813f be54 8a3f b34f 7c3f
00000180: 6d1f 863f 8fdc 853f e92e 7e3f 357b 883f

gcn_layer1.batchnorm.bias f4 [100]
-0.034529686 -0.035709266 -0.013067784 0.025320157 0.039380196 0.042172857 0.013934742 -0.02133957
0.041335087 -0.020521777 -0.017979288 -0.018510588 -0.010123646 0.012968764 0.03542091 -0.00017956944
0.0040249457 -0.007987837 0.015018762 0.017414913 -0.013485908 0.0011929589 0.059138972 0.024299657
-0.025484663 -0.012769491 -0.028540825 0.023555428 0.012274325 0.00073951524 -0.029382074 0.020314889
0.004488094 -0.007960489 -0.006076269 -0.019792436 0.00025204173 0.014275883 -0.01545807 -0.005594746
-0.0033264663 0.0065551815 0.011457318 0.03256933 0.022059854 0.014850219 0.018859828 -0.013884696
-0.012826664 -0.014026772 0.008773855 0.016897736 0.009645086 0.052122485 -0.025567673 -0.021500945
-0.025177361 0.048409436 -0.0108190635 -0.019450782 0.028040858 -0.0016462042 -0.0008130137 0.001506667
0.013263082 -0.026443196 -0.023099767 -0.009919802 0.020722931 0.040252425 -0.009050888 0.0050270315
0.025505131 -0.017945748 -0.022008186 -0.010039164 0.04917584 -0.008746184 0.03555811 0.034284074
0.00253772 0.0032398424 -0.002929015 -0.0029714876 0.00987502 0.031950336 0.011437307 0.03437683
0.010984595 0.015825734 0.017164025 0.02088703 0.047905874 0.06702941 -0.0018099763 0.033716675
-0.014225719 0.021831682 -0.03890131 0.031706046
00000000: 006f 0dbd e143 12bd 421a 56bc 386c cf3c
00000010: 214d 213d 72bd 2c3d 8b4e 643c 52d0 aebc
00000020: fb4e 293d 491d a8bc 4d49 93bc 84a3 97bc
00000030: a6dd 25bc f07a 543c 8415 113d ce4a 3cb9
00000040: b1e3 833b 6bdf 02bc 4111 763c b8a9 8e3c
00000050: fff3 5cbc 0f5d 9c3a b53b 723d 1310 c73c
00000060: 36c5 d0bc 2137 51bc 73ce e9bc 50f7 c03c
00000070: 401a 493c 07dc 413a adb2 f0bc 696b a63c
00000080: dc10 933b b66c 02bc 701b c7bb bf23 a2bc
00000090: 7824 8439 65e5 693c d843 7dbc 2254 b7bb
000000a0: d800 5abb d9cc d63b 7ab7 3b3c 6b67 053d
000000b0: deb6 b43c 554e 733c ed7f 9a3c a37c 63bc
000000c0: ee26 52bc 8cd0 65bc 37c0 0f3c 1f6d 8a3c
000000d0: 6c06 1e3c 637e 553d 4c73 d1bc c022 b0bc
000000e0: c140 cebc f948 463d 7142 31bc 3f57 9fbc
000000f0: f1b5 e53c 72c5 d7ba 6d20 55ba 5b7b c53a
00000100: 664d 593c 679f d8bc b93b bdbc aa86 22bc
00000110: 23c3 a93c badf 243d 2d4a 14bc ccb9 a43b
00000120: 23f0 d03c f602 93bc 834a b4bc 4e7b 24bc
00000130: 9b6c 493d 284c 0fbc 61a5 113d 756d 0c3d
00000140: e04f 263b 8953 543b b8f4 3fbb 4abd 42bb
00000150: d6ca 213c 5bde 023d 8b63 3b3c b8ce 0c3d
00000160: bbf8 333c f8a4 813c 929b 8c3c 471b ab3c
00000170: f338 443d b746 893d ba3c edba 7f1a 0a3d
00000180: fd12 69bc 5bd8 b23c fb56 1fbd 33de 013d

gcn_layer1.batchnorm.running_mean f4 [100]
0.39096537 0.39090285 0.39100474 0.391054 0.3911059 0.39118257 0.3913312 0.39150125
0.39168167 0.3918101 0.39195985 0.3921379 0.3923881 0.39247093 0.39259037 0.3926798
0.3927671 0.39279395 0.3928515 0.3928902 0.3928972 0.3928973 0.39287907 0.39281523
0.3928443 0.3928637 0.39287978 0.3928758 0.3928586 0.3929073 0.3929558 0.39297378
0.39314017 0.3931289 0.39317295 0.3932316 0.3932739 0.39326724 0.39322183 0.39317885
0.39310536 0.39298934 0.39295197 0.3929065 0.3929705 0.39306715 0.3931424 0.3932828
0.39339522 0.39346787 0.39363685 0.3936727 0.3937419 0.39374724 0.39378223 0.39387503
0.39385277 0.39382005 0.39378044 0.39375895 0.39379114 0.39377695 0.39381275 0.393804
0.3938143 0.393871 0.39384258 0.39381427 0.39373896 0.39366096 0.3936289 0.39344007
0.39341658 0.3933549 0.39336994 0.39342672 0.39344326 0.39349118 0.39348477 0.3934893
0.39355582 0.39361024 0.39368838 0.39370352 0.39373055 0.39379492 0.39392424 0.3939992
0.3940669 0.39405683 0.394078 0.39405218 0.39410794 0.39409968 0.39412674 0.39421615
0.39433524 0.39446244 0.39456585 0.39471152
00000000: 9d2c c83e 6b24 c83e c631 c83e 3b38 c83e
00000010: 083f c83e 1549 c83e 905c c83e da72 c83e
00000020: 808a c83e 559b c83e f6ae c83e 4dc6 c83e
00000030: 18e7 c83e f3f1 c83e 9b01 c93e 540d c93e
00000040: c518 c93e 4a1c c93e d523 c93e e728 c93e
00000050: d229 c93e d629 c93e 7227 c93e 141f c93e
00000060: e322 c93e 6e25 c93e 8a27 c93e 0427 c93e
00000070: c324 c93e 252b c93e 8131 c93e dc33 c93e
00000080: ab49 c93e 3148 c93e f74d c93e a755 c93e
00000090: 325b c93e 535a c93e 5f54 c93e bd4e c93e
000000a0: 1b45 c93e e635 c93e 0031 c93e 0a2b c93e
000000b0: 6e33 c93e 1940 c93e f649 c93e 5d5c c93e
000000c0: 196b c93e 9f74 c93e c58a c93e 788f c93e
000000d0: 8a98 c93e 3d99 c93e d39d c93e fda9 c93e
000000e0: 12a7 c93e c8a2 c93e 979d c93e c69a c93e
000000f0: fe9e c93e 229d c93e d3a1 c93e aea0 c93e
00000100: 07a2 c93e 76a9 c93e bca5 c93e 06a2 c93e
00000110: 2798 c93e ee8d c93e ba89 c93e fa70 c93e
00000120: e66d c93e d065 c93e c967 c93e 3a6f c93e
00000130: 6571 c93e ad77 c93e d676 c93e 6e77 c93e
00000140: 2680 c93e 4887 c93e 8691 c93e 8293 c93e
00000150: 0d97 c93e 7d9f c93e 70b0 c93e 43ba c93e
00000160: 23c3 c93e d1c1 c93e 97c4 c93e 35c1 c93e
00000170: 84c8 c93e 6fc7 c93e fbca c93e b3d6 c93e
00000180: 4fe6 c93e fbf6 c93e 8904 ca3e a117 ca3e

gcn_layer1.batchnorm.running_var f4 [100]
0.036296744 0.036288355 0.036288254 0.036294922 0.036304127 0.0363087 0.036332887 0.03633971
0.036338132 0.03634886 0.03635962 0.036378615 0.03638573 0.036389846 0.03640223 0.03642157
0.0364512 0.036459967 0.036458846 0.036463868 0.03646699 0.03647187 0.036471736 0.036458068
0.036459826 0.036490437 0.03651363 0.03652626 0.036521465 0.03652468 0.03654698 0.036526047
0.036522634 0.03649391 0.03648144 0.036466982 0.036460947 0.036436558 0.036431238 0.03640985
0.03640554 0.036394622 0.036402192 0.036401596 0.036421485 0.036440514 0.036479976 0.036488615
0.036491226 0.03647397 0.036489893 0.03647752 0.036463343 0.036457095 0.03646509 0.03648876
0.03650029 0.036486056 0.036479473 0.036464155 0.036477346 0.036454786 0.036466043 0.036477007
0.03648476 0.036494836 0.036500353 0.03650542 0.03651223 0.036516443 0.036524467 0.03650251
0.036530226 0.03653265 0.036541376 0.036558434 0.036592074 0.036616374 0.03661509 0.03660456
0.036612965 0.03661642 0.036632683 0.036614046 0.036599163 0.036608834 0.03660571 0.036626525
0.036618907 0.03658139 0.036583643 0.03655637 0.036580533 0.036591556 0.036609363 0.036638312
0.0366569 0.036683384 0.036693577 0.036709044
00000000: e5ab 143d 19a3 143d fea2 143d fca9 143d
00000010: a3b3 143d 6eb8 143d cbd1 143d f3d8 143d
00000020: 4bd7 143d 8be2 143d d3ed 143d be01 153d
00000030: 3409 153d 850d 153d 811a 153d c92e 153d
00000040: da4d 153d 0c57 153d df55 153d 235b 153d
00000050: 695e 153d 8763 153d 6363 153d 0e55 153d
00000060: e656 153d ff76 153d 518f 153d 8f9c 153d
00000070: 8897 153d e79a 153d 49b2 153d 569c 153d
00000080: c298 153d a37a 153d 906d 153d 675e 153d
00000090: 1358 153d 803e 153d ec38 153d 7f22 153d
000000a0: fa1d 153d 8712 153d 771a 153d d719 153d
000000b0: b22e 153d a642 153d 076c 153d 1675 153d
000000c0: d377 153d bb65 153d 6d76 153d 7469 153d
000000d0: 965a 153d 0954 153d 6b5c 153d 3d75 153d
000000e0: 5481 153d 6772 153d 806b 153d 705b 153d
000000f0: 4569 153d 9d51 153d 6b5d 153d ea68 153d
00000100: 0b71 153d 9c7b 153d 6581 153d b586 153d
00000110: d98d 153d 4492 153d ae9a 153d a883 153d
00000120: b8a0 153d 43a3 153d 69ac 153d 4cbe 153d
00000130: 92e1 153d 0dfb 153d b4f9 153d aaee 153d
00000140: 7af7 153d 19fb 153d 270c 163d 9cf8 153d
00000150: 01e9 153d 25f3 153d deef 153d b205 163d
00000160: b5fd 153d 5ed6 153d bbd8 153d 22bc 153d
00000170: 78d5 153d 07e1 153d b3f3 153d 0e12 163d
00000180: 8c25 163d 5141 163d 014c 163d 395c 163d

gcn_layer2.weight f4 [16, 32]
0.001966777 0.14663815 0.07300026 -0.07627397 -0.1592799 0.16787934 -0.061631437 -0.076181084
0.07301982 -0.17973852 -0.021083059 0.20427823 0.061921395 -0.16432126 0.12733117 0.13479535
0.093190804 -0.17859788 0.05219164 -0.0068305973 -0.10668322 -0.20273185 -0.06581618 0.09473089
0.039229818 0.06163953 -0.020219943 -0.06409871 -0.028428756 0.10606218 0.099658586 -0.08685218
0.168634 0.08702937 0.1941733 -0.072615966 -0.16669506 0.08291453 -0.15273859 0.0083621815
0.112289205 0.071801335 -0.08152764 0.09134858 -0.02191041 0.21894579 0.0638879 -0.026839588
0.17679758 0.041057877 -0.08227585 0.033277985 0.17577505 -0.004119755 -0.1867267 -0.012589871
0.18006177 -0.14681989 -0.058318906 -0.17176399 -0.26500648 -0.022973416 0.08857398 -0.036912803
0.104283385 -0.070246525 -0.11035426 0.037694655 -0.15653135 -0.08469005 -0.23849666 0.07399787
0.27042222 -0.14835092 -0.11379631 0.17736717 -0.07768801 0.07176417 0.14599852 0.13274536
-0.103159666 -0.22029606 -0.122085385 0.15932234 0.3113992 -0.045012895 -0.06532408 -0.05011838
-0.0071490295 -0.0719588 0.16119127 0.21287723 -0.22292668 0.089973815 0.08606729 -0.022831425
0.12276011 -0.0058582188 -0.09537031 -0.19740401 -0.11696669 -0.050788973 -0.19242951 -0.020905482
0.20013197 -0.11392494 0.09786687 -0.15627985 -0.09605988 0.009911253 -0.077635124 0.07946073
0.06526287 -0.19392015 0.07589637 -0.12307034 0.24137671 0.0055645327 0.044289447 -0.026665062
0.061091103 -0.23887777 0.15059163 0.012920842 0.014744466 0.06795217 0.21858661 -0.015224288
0.045310277 0.11109144 -0.043410156 -0.37139148 0.078548804 0.13754359 -0.057082873 -0.023709977
0.06891678 -0.026152568 0.051270857 0.030476445 0.011581725 0.016737053 0.12746236 -0.0642721
0.17718704 0.052096833 -0.1285044 0.15531339 -0.08862451 0.08058349 0.12327048 0.2075869
-0.12942064 0.08582258 0.16351666 -0.0577946 -0.021962572 0.1218957 0.09802757 0.18350728
-0.011747908 -0.00624593 0.07646224 -0.32792038 0.13969453 0.07300014 -0.08433541 -0.23408835
0.20340282 -0.13116318 -0.03094393 -0.014601471 -0.07175947 -0.1709001 0.19725747 0.0082679065
-0.022625912 0.1711438 0.111016236 0.11591325 -0.17474496 0.16852538 -0.022189105 -0.08014364
0.036566053 0.13097969 0.14250818 -0.067413375 0.054662414 -0.19930993 0.061644748 0.27120182
0.079849236 0.015395279 0.14371789 0.016527126 0.058684476 0.28600922 -0.032139275 -0.06577264
0.0731806 -0.33010617 0.21211667 -0.1623532 -0.058565047 0.049010497 0.095343865 0.017464543
0.039328013 0.035818666 0.18676151 -0.055360634 0.2695066 -0.009589136 -0.03689716 0.08826723
0.041729294 -0.19439836 0.18262543 0.2751068 -0.24378534 -0.05690377 -0.11537473 -0.034035824
0.008267469 0.26394615 0.29690385 -0.16492276 0.047977544 0.1590981 -0.08751461 0.020034313
0.1884497 -0.021202113 -0.0022484376 -0.108587846 -0.007245633 -0.23745838 -0.09249592 -0.15383792
0.21039729 0.060879048 -0.044803925 0.21723488 0.07408543 0.1110722 0.055376228 -0.19252539
0.08890819 -0.034341447 0.20795578 0.12791339 0.13506818 -0.051196534 -0.13256796 -0.07680523
00000000: 0be5 003b 5028 163e 2981 953d 8735 9cbd
00000010: 451a 23be 90e8 2b3e 3f71 7cbd d404 9cbd
00000020: 6a8b 953d 600d 38be 61b6 acbc 502e 513e
00000030: 4aa1 7d3d d543 28be 1a63 023e cb07 0a3e
00000040: d2da be3d 5de2 36be e7c6 553d 34d3 dfbb
00000050: bb7c dabd f098 4fbe a2ca 86bd 4502 c23d
00000060: 72af 203d bb79 7c3d 4ba4 a5bc 2f46 83bd
00000070: 6ce3 e8bc 2137 d93d cd19 cc3d 8edf b1bd
00000080: 64ae 2c3e 743c b23d 5ed5 463e aeb7 94bd
00000090: 1cb2 2abe 18cf a93d 8167 1cbe 8801 093c
000000a0: e2f7 e53d 940c 933d f7f7 a6bd f714 bb3d
000000b0: 767d b3bc 5333 603e a9d7 823d b2de dbbc
000000c0: 6d0a 353e 4e2c 283d 3e80 a8bd 7f4e 083d
000000d0: 60fe 333e 02ff 86bb 4935 3fbe bf45 4ebc
000000e0: 1d62 383e f457 16be cedf 6ebd e6e2 2fbe
000000f0: eeae 87be bf32 bcbc 4666 b53d e131 17bd
00000100: 8792 d53d 69dd 8fbd 6a01 e2bd b665 1a3d
00000110: c149 20be fa71 adbd 7838 74be 328c 973d
00000120: c874 8a3e 4ee9 17be 0a0e e9bd bd9f 353e
00000130: e41a 9fbd 18f9 923d a380 153e 66ee 073e
00000140: 6045 d3bd 4a95 61be e707 fabd 6525 233e
00000150: b76f 9f3e 715f 38bd a2c8 85bd ee48 4dbd
00000160: 6842 eabb 235f 93bd 530f 253e 7dfc 593e
00000170: e446 64be 3144 b83d 0c44 b03d f808 bbbc
00000180: a769 fb3d 4df6 bfbb 8251 c3bd 4724 4abe
00000190: 3b8c efbd 1908 50bd 3e0c 45be f941 abbc
000001a0: 65ef 4c3e 7b51 e9bd 6d6e c83d d307 20be
000001b0: 0bbb c4bd cf62 223c 2aff 9ebd 4fbc a23d
000001c0: 8aa8 853d 0193 46be 8e6f 9b3d 4d0c fcbd
000001d0: 752b 773e af56 b63b da68 353d b070 dabc
000001e0: aa3a 7a3d 609c 74be b134 1a3e f0b1 533c
000001f0: c692 713c 822a 8b3d 2bd5 5f3e 4b6f 79bc
00000200: 4597 393d e983 e33d d9ce 31bd 0627 bebe
00000210: 32de a03d 3ad8 0c3e bbcf 69bd 6d3b c2bc
00000220: 3e24 8d3d e93d d6bc 6401 523d bda9 f93c
00000230: 47c1 3d3c 251c 893c 7e85 023e 17a1 83bd
00000240: 8570 353e 7d63 553d a896 03be 790a 1f3e
00000250: c480 b5bd f508 a53d 3c75 fc3d a991 543e
00000260: d886 04be c0c3 af3d e970 273e 08ba 6cbd
00000270: daea b3bc 74a4 f93d aec2 c83d 55e9 3b3e
00000280: 4c7a 40bc a9aa ccbb 3c98 9c3d 2ee5 a7be
00000290: 150c 0f3e 1981 953d 0bb8 acbd dbb4 6fbe
000002a0: d448 503e a44f 06be 207e fdbc 023b 6fbc
000002b0: a1f6 92bd 7000 2fbe ddfd 493e 1d76 073c
000002c0: fa59 b9bc 5240 2f3e 7b5c e33d ed63 ed3d
000002d0: 58f0 32be eb91 2c3e edc5 b5bc 5922 a4bd
000002e0: 49c6 153d 8a1f 063e aaed 113e 0610 8abd
000002f0: b2e5 5f3d e717 4cbe 347f 7c3d f7da 8a3e
00000300: ff87 a33d 7b3c 7c3c c82a 133e e563 873c
00000310: 225f 703d cd6f 923e 79a4 03bd ceb3 86bd
00000320: b6df 953d ad03 a9be 1d35 593e eb3f 26be
00000330: e7e1 6fbd 3bbf 483d a543 c33d cd11 8f3c
00000340: 6916 213d 98b6 123d 693e 3f3e d5c1 62bd
00000350: c5fc 893e c01b 1dbc 7a21 17bd 73c5 b43d
00000360: 56ec 2a3d 5d10 47be 2902 3b3e ccda 8c3e
00000370: dda2 79be ed13 69bd 9649 ecbd 2669 0bbd
00000380: 4774 073c f323 873e c803 983e 83e1 28be
00000390: 1a84 443d 9dea 223e dc3a b3bd 001f a43c
000003a0: f5f8 403e 0eb0 adbc 865a 13bb 4e63 debd
000003b0: c66c edbb 4a28 73be 806e bdbd b087 1dbe
000003c0: 6372 573e 4f5c 793d 5284 37bd d272 5e3e
000003d0: 1aba 973d d279 e33d 2fd2 623d 6025 45be
000003e0: 7f15 b63d 9ea9 0cbd 5cf2 543e bafb 023e
000003f0: 504f 0a3e 75b3 51bd e5bf 07be 0f4c 9dbd

gcn_layer2.bias f4 [32]
0.07822265 0.057207372 -0.13469812 0.19865948 -0.11871838 0.021869473 -0.038710814 0.17287225
-0.019915072 0.094413325 0.049577285 -0.09740995 -0.17676234 -0.048004247 -0.15104054 -0.1266874
-0.011539837 -0.1033492 -0.14997078 0.17821634 -0.1353387 0.18714441 -0.06440588 0.10426018
-0.15433262 0.026169633 -0.21877512 -0.092375435 0.14206499 -0.12255514 0.12882887 -0.11463576
00000000: 3233 a03d 4752 6a3d 4eee 09be 646d 4b3e
00000010: 9f22 f3bd 9c27 b33c 3b8f 1ebd 6c05 313e
00000020: ef24 a3bc c65b c13d 8d11 4b3d de7e c7bd
00000030: 3001 35be 1aa0 44bd 5faa 1abe 57ba 01be
00000040: 9611 3dbc bfa8 d3bd f191 19be 587e 363e
00000050: 3a96 0abe c9a2 3f3e 3be7 83bd 5c86 d53d
00000060: 5f09 1ebe b361 d63c 9606 60be 552f bdbd
00000070: 7c79 113e 30fe fabd b7eb 033e 27c6 eabd

gcn_layer2.batchnorm.weight f4 [100]
1.0409685 1.0217093 1.0214077 0.98792124 0.90207106 1.0456744 1.0474297 1.0073047
0.9662231 1.0823818 1.0827459 1.0893476 1.073897 0.9815189 1.0163441 1.0174402
0.99457693 1.0438768 1.0559921 1.0880877 1.0889131 1.0940099 1.0658195 0.96427596
1.0561965 1.0581115 1.0679239 1.0455903 1.0588484 1.0738087 1.0306528 1.0633453
0.9897039 0.9706475 0.97686106 0.9856915 1.0021976 0.97683084 1.0972308 1.0822172
1.1040643 1.1134566 1.0171754 0.9875487 0.97529644 0.99562097 0.9890313 1.1004801
1.0807136 1.1197659 1.0540687 1.0829272 1.08748 0.9852842 1.0516517 1.0265269
1.0783184 0.9914054 1.0119984 1.0840336 1.0805852 1.0958666 1.0904592 0.93568027
0.9780845 1.0651515 1.0237298 1.0630897 0.99698496 1.0736965 1.1477864 1.1048098
1.085087 1.1327934 1.0749524 1.0908233 1.0353998 1.0495033 1.0741644 1.0527782
1.0677493 1.0621141 1.0892603 1.0524697 1.0164174 1.0116287 0.9962206 0.9949305
1.0758747 1.0893197 1.123675 1.0141044 0.9869698 1.0069252 0.9991906 0.97374827
1.1013134 1.0982695 1.0839745 1.0917358
00000000: 753e 853f 5fc7 823f 7dbd 823f 68e8 7c3f
00000010: 21ee 663f a9d8 853f 2d12 863f 5cef 803f
00000020: 665a 773f 7d8b 8a3f 6b97 8a3f be6f 8b3f
00000030: 7575 893f d344 7b3f 9017 823f 7b3b 823f
00000040: 989c 7e3f c19d 853f c02a 873f 7546 8b3f
00000050: 8161 8b3f 8408 8c3f c66c 883f cada 763f
00000060: 7231 873f 3370 873f bbb1 883f e7d5 853f
00000070: 5888 873f 9072 893f 6eec 833f b31b 883f
00000080: 3c5d 7d3f 5b7c 783f 9113 7a3f 4756 7c3f
00000090: 0348 803f 9611 7a3f 0f72 8c3f 1886 8a3f
000000a0: fb51 8d3f bf85 8e3f ce32 823f fecf 7c3f
000000b0: 07ad 793f 04e1 7e3f 2831 7d3f 88dc 8c3f
000000c0: d354 8a3f 7d54 8f3f b9eb 863f 5c9d 8a3f
000000d0: 8b32 8b3f 963b 7c3f 869c 863f 3c65 833f
000000e0: 5606 8a3f bfcc 7d3f 2a89 813f 9dc1 8a3f
000000f0: 9e50 8a3f 5b45 8c3f 2b94 8b3f be88 6f3f
00000100: bf63 7a3f e256 883f 9409 833f 5313 883f
00000110: 683a 7f3f e36e 893f aaea 923f 686a 8d3f
00000120: 21e4 8a3f 60ff 903f 0a98 893f 19a0 8b3f
00000130: fb87 843f 2056 863f 387e 893f 70c1 863f
00000140: 02ac 883f 5bf3 873f e26c 8b3f 54b7 863f
00000150: f719 823f 0d7d 813f 5008 7f3f c4b3 7e3f
00000160: 43b6 893f d46e 8b3f 95d4 8f3f 2cce 813f
00000170: 0eaa 7c3f ede2 803f f5ca 7f3f 9147 793f
00000180: d6f7 8c3f 1894 8c3f adbf 8a3f 00be 8b3f

gcn_layer2.batchnorm.bias f4 [100]
0.042286895 0.17977436 0.025958395 -0.036781825 -0.032769762 -0.001999468 -0.01791937 0.018526925
-0.0057940925 0.0008676102 -0.015206334 -0.03162165 -0.04511078 -0.0071115154 -0.028338337 0.014408517
-0.010921041 -0.030663935 -0.04049318 0.008069444 0.010900285 0.028247023 -0.041114714 -0.01717786
-0.02979968 -0.019754617 -0.033206068 0.0008934392 -0.00054781744 0.0116412 0.037972722 0.022561442
-0.017128635 -0.0077071157 0.0017603204 -0.0019210948 0.005560178 0.0030238891 -0.01885998 -0.021772584
-0.027518664 -0.018719733 -0.026882254 -0.01548955 0.008016005 0.00934856 0.008687412 -0.035296857
-0.019838072 -0.022808999 0.0021046377 -0.01048989 -0.029596237 -0.0025149954 -0.011224707 -0.020152228
-0.034699038 0.0005690855 -0.005055564 -0.019607322 -0.023129912 -0.028272316 -0.067910865 -0.032378312
-0.015897691 -0.03811581 -0.01833299 0.0029214227 0.033224378 -0.020531395 -0.041705485 -0.023484983
-0.03679389 -0.05512577 -0.046410196 -0.023328766 0.022812879 0.019689146 0.006114697 -0.014006899
-0.010247244 -0.029963039 -0.03427192 0.014685709 0.030879091 0.01226563 -0.006550431 0.026622359
-0.017228823 0.008052361 -0.041403614 -0.05167845 -0.039885104 -0.037777666 0.041983612 0.019411242
-0.0061485823 -0.014541328 -0.019851714 0.06812344
00000000: 0635 2d3d c516 383e b3a6 d43c 8aa8 16bd
00000010: 9639 06bd 8209 03bb a5cb 92bc c7c5 973c
00000020: 5fdc bdbb 5670 633a fd23 79bc b485 01bd
00000030: 15c6 38bd b707 e9bb cd25 e8bc b311 6c3c
00000040: 2aee 32bc ef32 fbbc 2ddc 25bd b435 043c
00000050: 1c97 323c 4d66 e73c e767 28bd 95b8 8cbc
00000060: 751e f4bc 6fd4 a1bc 1603 08bd b135 6a3a
00000070: 689b 0fba bbba 3e3c 4989 1b3d c6d2 b83c
00000080: 5a51 8cbc f98b fcbb 8dba e63a 3fcd fbba
00000090: 2732 b63b 712c 463b 3f80 9abc 6b5c b2bc
000000a0: d26e e1bc 205a 99bc 2c38 dcbc e2c7 7dbc
000000b0: 9055 033c b42a 193c a655 0e3c 7093 10bd
000000c0: 7483 a2bc f0d9 babc f6ed 093b cadd 2bbc
000000d0: cf73 f2bc 9fd2 24bb d5e7 37bc 4916 a5bc
000000e0: 9420 0ebd ae2e 153a 25a9 a5bb 899f a0bc
000000f0: f17a bdbc 589b e7bc da14 8bbd 1f9f 04bd
00000100: e03b 82bc 531f 1cbd 112f 96bc 5775 3f3b
00000110: 4916 083d 7531 a8bc 5fd3 2abd 9463 c0bc
00000120: 31b5 16bd 8fcb 61bd 9e18 3ebd f81b bfbc
00000130: 13e2 ba3c 224b a13c cc5d c83b 317d 65bc
00000140: 0ee4 27bc 0c75 f5bc b660 0cbd 549c 703c
00000150: 26f6 fc3c c8f5 483c ffa4 d6bb 2217 da3c
00000160: 7623 8dbc 0dee 033c d696 29bd c8ac 53bd
00000170: 905e 23bd c1bc 1abd 02f7 2b3d 5304 9f3c
00000180: 0c7a c9bb c03e 6ebc 10a0 a2bc 4d84 8b3d

gcn_layer2.batchnorm.running_mean f4 [100]
0.10714383 0.107072644 0.106367625 0.10650309 0.10743199 0.10633289 0.10640034 0.10736108
0.10645127 0.10679815 0.107151695 0.10710768 0.10681173 0.10638426 0.106804036 0.10627335
0.1068979 0.10689266 0.10677842 0.10619696 0.106288284 0.10600766 0.107437655 0.106428675
0.10780278 0.10747226 0.107706584 0.10656656 0.10717076 0.107033804 0.107562326 0.106975324
0.10754366 0.10686175 0.10652559 0.10652672 0.10687704 0.10714299 0.107482605 0.10682025
0.10694388 0.10623102 0.106978275 0.10626933 0.106361434 0.106576666 0.10656147 0.107452266
0.10680736 0.10748273 0.10722626 0.1070192 0.10704993 0.10691756 0.10716987 0.106828734
0.10695811 0.10611963 0.106836684 0.10714737 0.10675249 0.106210016 0.10668778 0.10657582
0.106392056 0.10677547 0.10593955 0.10666353 0.106574126 0.10681527 0.10674872 0.1068998
0.106943496 0.10751956 0.10672867 0.10649158 0.10690264 0.10737579 0.106488384 0.106879346
0.10641533 0.10726364 0.106423624 0.10641286 0.10691162 0.10628916 0.10723343 0.10678748
0.106919035 0.10657733 0.10698841 0.10691322 0.106632724 0.10715999 0.10689393 0.10636243
0.10597934 0.10626047 0.10619459 0.106115915
00000000: 396e db3d e748 db3d 45d7 d93d 4b1e da3d
00000010: 4e05 dc3d 0fc5 d93d 6ce8 d93d 20e0 db3d
00000020: 2003 da3d fdb8 da3d 5972 db3d 455b db3d
00000030: 1cc0 da3d fedf d93d 13bc da3d d8a5 d93d
00000040: 49ed da3d 8aea da3d a5ae da3d cb7d d93d
00000050: acad d93d 8b1a d93d 4608 dc3d 47f7 d93d
00000060: b4c7 dc3d 6b1a dc3d 4595 dc3d 923f da3d
00000070: 587c db3d 8a34 db3d a349 dc3d e115 db3d
00000080: da3f dc3d 55da da3d 172a da3d ae2a da3d
00000090: 59e2 da3d c96d db3d d71f dc3d 93c4 da3d
000000a0: 6505 db3d a68f d93d 6d17 db3d bca3 d93d
000000b0: 06d4 d93d de44 da3d e63c da3d ef0f dc3d
000000c0: d1bd da3d e81f dc3d 7199 db3d e22c db3d
000000d0: fe3c db3d 98f7 da3d e07b db3d 06c9 da3d
000000e0: db0c db3d 4055 d93d 31cd da3d 1570 db3d
000000f0: 0da1 da3d a384 d93d 1f7f da3d 6c44 da3d
00000100: 14e4 d93d 19ad da3d d6f6 d83d 6972 da3d
00000110: 8943 da3d f7c1 da3d 139f da3d 48ee da3d
00000120: 3105 db3d 3733 dc3d 9094 da3d 4218 da3d
00000130: c5ef da3d d7e7 db3d 9516 da3d 8fe3 da3d
00000140: 48f0 d93d 0aad db3d a1f4 d93d fcee d93d
00000150: 7bf4 da3d 22ae d93d 339d db3d 65b3 da3d
00000160: 5ef8 da3d 3745 da3d bd1c db3d 51f5 da3d
00000170: 4262 da3d b276 db3d 34eb da3d 8cd4 d93d
00000180: b20b d93d 179f d93d 8d7c d93d 4d53 d93d

gcn_layer2.batchnorm.running_var f4 [100]
0.025741508 0.025696693 0.02542237 0.025490288 0.02586193 0.025447974 0.025494205 0.025823072
0.02548313 0.025604809 0.02574833 0.025755923 0.025672946 0.025463179 0.025679236 0.02546756
0.025740622 0.025661124 0.025714152 0.02545228 0.025496228 0.025410155 0.025924394 0.025532978
0.02600324 0.025922595 0.025994861 0.025523873 0.025780493 0.025729911 0.025938526 0.025693947
0.025930358 0.025707822 0.025567496 0.025583062 0.025693212 0.02574848 0.025875235 0.02563569
0.0256709 0.025408754 0.025653964 0.025443865 0.025494287 0.025536368 0.0255185 0.02592648
0.025654498 0.025847886 0.025802813 0.025787171 0.025804032 0.025740178 0.025842294 0.025720347
0.025758196 0.025507009 0.02574511 0.025834503 0.025700519 0.025503632 0.025705887 0.025661392
0.025563871 0.025734195 0.025458056 0.02568491 0.025620762 0.025769528 0.025664903 0.025721554
0.02579672 0.025955359 0.025662716 0.025583727 0.025758052 0.025893336 0.025589122 0.025759295
0.0255604 0.025852786 0.025560003 0.025506707 0.025814649 0.025542613 0.025849283 0.025678582
0.025752302 0.02561428 0.025762852 0.025679149 0.025661483 0.025845254 0.025712352 0.025495142
0.025398692 0.025476806 0.025500556 0.025517046
00000000: dbdf d23c df81 d23c 9342 d03c 02d1 d03c
00000010: 66dc d33c 4578 d03c 39d9 d03c e88a d33c
00000020: ffc1 d03c 2dc1 d13c 29ee d23c 16fe d23c
00000030: 1250 d23c 2898 d03c 435d d23c 58a1 d03c
00000040: ffdd d23c 4737 d23c 7ca6 d23c 4d81 d03c
00000050: 77dd d03c f528 d03c 655f d43c 892a d13c
00000060: bf04 d53c 9f5b d43c 2df3 d43c 7117 d13c
00000070: 9d31 d33c 89c7 d23c 087d d43c 1d7c d23c
00000080: e76b d43c 3699 d23c ed72 d13c 9293 d13c
00000090: 927a d23c 7aee d23c 4df8 d33c f001 d23c
000000a0: c74b d23c 0526 d03c 4328 d23c a76f d03c
000000b0: 65d9 d03c a531 d13c 2c0c d13c c563 d43c
000000c0: 6229 d23c f2be d33c 6c60 d33c 9e3f d33c
000000d0: fa62 d33c 11dd d23c 38b3 d33c 7ab3 d23c
000000e0: da02 d33c 13f4 d03c 69e7 d23c e1a2 d33c
000000f0: e589 d23c feec d03c 2795 d23c d737 d23c
00000100: 536b d13c 85d0 d23c 6a8d d03c 2969 d23c
00000110: a2e2 d13c 9e1a d33c 343f d23c 02b6 d23c
00000120: a553 d33c 55a0 d43c 9e3a d23c f794 d13c
00000130: 8d02 d33c 431e d43c 47a0 d13c 2805 d33c
00000140: 0b64 d13c 39c9 d33c 3663 d13c 71f3 d03c
00000150: 3e79 d33c be3e d13c e0c1 d33c e45b d23c
00000160: 7ef6 d23c 0ad5 d13c 9e0c d33c 145d d23c
00000170: 0838 d23c 6db9 d33c b6a2 d23c 30db d03c
00000180: eb10 d03c bcb4 d03c 8be6 d03c 2009 d13c

gcn_layer3.weight f4 [32, 10]
0.2051119 -0.29130456 -0.3539252 -0.26647612 -0.014763513 0.3787861 0.04715505 -0.12835501
0.2910131 0.11370772 -0.01571649 -0.2722217 -0.37512487 0.046412382 0.24984854 0.32308525
0.14827472 0.17617168 -0.1896908 0.32510835 -0.3231445 -0.16568485 0.041001204 -0.19156264
0.32273495 0.11670977 -0.26273975 -0.30400962 -0.27415106 0.3443247 -0.2314942 0.2644541
0.2260729 -0.4207762 0.25845724 0.08950791 0.16553827 -0.427639 -0.13448025 0.12764077
0.014428072 0.20228107 -0.1939561 0.2929266 -0.43877944 -0.19567567 -0.35936627 0.06719021
-0.13467467 -0.23080252 -0.27805224 -0.38510394 -0.20465809 -0.138315 0.13761477 0.38479814
0.11751298 0.039184947 -0.1598444 0.046832897 -0.3588681 0.2996926 0.26761967 0.3541843
-0.022595517 -0.21602607 -0.33200112 0.06547622 0.045038234 -0.20557517 0.38593704 -0.08002309
0.27976334 -0.13158327 -0.1417327 -0.1870587 0.37207326 -0.0758423 0.34845138 -0.41983688
-0.4772575 0.23295893 -0.043534566 -0.2699122 -0.023404852 0.17215694 0.26298887 0.21823213
0.27955714 0.28794095 0.36616257 0.41633865 0.08259493 0.27000192 0.11917862 -0.28165802
-0.24414714 0.09000367 0.16397935 -0.40208572 -0.15346986 -0.24645329 -0.12146221 0.16959305
-0.10815069 -0.12128865 -0.20056947 -0.29202545 -0.2713965 -0.19617109 -0.19899732 0.26216033
-0.5061823 -0.3626667 -0.017233536 -0.019134326 -0.18564555 -0.26782817 0.5431539 -0.02937686
-0.21243994 -0.06852645 0.23745319 0.26343107 -0.02364826 -0.07164014 -0.024632817 -0.12379201
0.081468076 -0.028853305 0.3462123 0.24403618 -0.14815472 -0.29179218 -0.14576782 -0.019839494
0.22766529 0.23187879 0.13413016 -0.3314111 -0.2147387 -0.39018923 -0.44297045 0.23700891
-0.006469129 -0.07311523 -0.03709179 -0.23569165 -0.36919746 0.22723293 -0.052588787 -0.41306442
-0.09392021 -0.13708149 -0.20630105 0.027427262 -0.101350024 0.06674308 -0.11856381 -0.058229223
-0.18590486 -0.06812427 -0.16121443 -0.13493973 0.068038516 0.16649038 -0.090691514 -0.10511337
0.01979592 0.32400513 0.2133306 0.08247108 -0.3719049 0.42088565 -0.07261579 -0.25608242
-0.27864578 0.38918835 -0.25690907 -0.16539027 -0.2860453 -0.118027665 -0.08982426 0.2307731
-0.32314292 -0.15330987 0.04819398 0.14817788 -0.1591955 -0.26645002 -0.23196603 -0.23157965
-0.43120435 0.16278955 0.28412035 0.32662037 0.33396056 -0.14825785 0.17654674 0.35581252
-0.3099266 -0.13575128 -0.34605837 -0.23559882 -0.29496533 -0.29902446 -0.29710203 0.0987899
-0.018032894 -0.3389735 -0.20223466 -0.31764287 -0.005809801 0.016731778 -0.073741995 0.27918804
0.272353 0.21396178 0.011955692 0.019850116 0.11576877 -0.06204682 -0.12945992 0.26546678
0.112224825 0.21765848 -0.15635988 0.053702034 -0.28368655 0.20520592 -0.17272301 0.24188393
-0.28186357 0.10691447 0.1812536 0.31972715 0.18043132 -0.042133722 0.020745859 -0.14841583
-0.049260143 0.096818194 0.18074945 -0.25149575 -0.059422225 -0.016274787 -0.035780158 -0.21855922
-0.3070331 -0.24993698 0.12288671 0.24263991 0.024214623 0.26204023 -0.13605052 0.06031018
00000000: db08 523e df25 95be af35 b5be 8f6f 88be
00000010: a9e2 71bc 40f0 c13e a725 413d 7f6f 03be
00000020: abff 943e 98df e83d debf 80bc a560 8bbe
00000030: 5e10 c0be e91a 3e3d 4cd8 7f3e 6e6b a53e
00000040: 54d5 173e 5966 343e 4e3e 42be 9a74 a63e
00000050: 3273 a5be 4aa9 29be e1f0 273d ff28 44be
00000060: 843d a53e 8805 ef3d d385 86be 26a7 9bbe
00000070: 875d 8cbe 544b b03e d10c 6dbe 8766 873e
00000080: a87f 673e fa6f d7be 8254 843e ec4f b73d
00000090: dd82 293e 80f3 dabe 31b5 09be 43b4 023e
000000a0: b863 6c3c c522 4f3e 6e9c 46be 7afa 953e
000000b0: b3a7 e0be 345f 48be dbfe b7be 059b 893d
000000c0: 28e8 09be 7f57 6cbe dd5c 8ebe 582c c5be
000000d0: e491 51be 73a2 0dbe e3ea 0c3e 4304 c53e
000000e0: a5aa f03d 6580 203d 40ae 23be dad3 3f3d
000000f0: 8fbd b7be 4f71 993e 7205 893e a557 b53e
00000100: 3c1a b9bc f035 5dbe 0dfc a9be 6518 863d
00000110: 037a 383d 4c82 52be 8a99 c53e 25e3 a3bd
00000120: 243d 8f3e c4bd 06be 6022 11be 518c 3fbe
00000130: 6380 be3e 3553 9bbd 3868 b23e dcf4 d6be
00000140: 185b f4be c98c 6e3e 4d51 32bd ef31 8abe
00000150: 88bb bfbc e949 303e 7aa6 863e 3e78 5f3e
00000160: 1d22 8f3e ff6c 933e a979 bb3e 572a d53e
00000170: 8827 a93d b13d 8a3e ec13 f43d 7b35 90be
00000180: b501 7abe d853 b83d 34ea 273e 2ede cdbe
00000190: 3427 1dbe 405e 7cbe 2ec1 f8bd cda9 2d3e
000001a0: 1c7e ddbd 2f66 f8bd 1562 4dbe 5c84 95be
000001b0: 7bf4 8abe 13e1 48be f4c5 4bbe e139 863e
000001c0: 2a95 01bf 73af b9be 582d 8dbc 97bf 9cbc
000001d0: de19 3ebe c620 89be 220c 0b3f bea7 f0bc
000001e0: db89 59be 9857 8cbd ee26 733e 70e0 863e
000001f0: ffb9 c1bc 11b8 92bd c3ca c9bc aa86 fdbd
00000200: bcd8 a63d c45d ecbc bd42 b13e 9fe4 793e
00000210: dfb5 17be c965 95be 2944 15be 6f86 a2bc
00000220: 1721 693e a271 6d3e 6b59 093e b7ae a9be
00000230: 76e4 5bbe e2c6 c7be 06cd e2be 77b2 723e
00000240: fdfa d3bb 70bd 95bd 90ed 17bd 2759 71be
00000250: 7307 bdbe c0af 683e 5767 57bd 2e7d d3be
00000260: 3d59 c0bd 175f 0cbe 9540 53be 23af e03c
00000270: 9a90 cfbd 99b0 883d 95d1 f2bd c481 6ebd
00000280: d85d 3ebe bd84 8bbd 6515 25be a42d 0abe
00000290: c757 8b3d 747c 2a3e 79bc b9bd ae45 d7bd
000002a0: 0e2b a23c 00e4 a53e 5673 5a3e 99e6 a83d
000002b0: 526a bebe 537e d73e 96b7 94bd 3c1d 83be
000002c0: a9aa 8ebe b243 c73e 9689 83be 115c 29be
000002d0: 8874 92be 7db8 f1bd c8f5 b7bd c94f 6c3e
000002e0: fd72 a5be 43fd 1cbe 0d67 453d f1bb 173e
000002f0: 2504 23be 236c 88be 8188 6dbe 3723 6dbe
00000300: d1c6 dcbe 4eb2 263e 3978 913e c93a a73e
00000310: e1fc aa3e e8d0 17be abc8 343e 0f2d b63e
00000320: b3ae 9ebe 6202 0bbe 902e b1be d140 71be
00000330: b205 97be bc19 99be c21d 98be 5c52 ca3d
00000340: b8b9 93bc ef8d adbe 9a16 4fbe 16a2 a2be
00000350: 2560 bebb 1511 893c 0b06 97bd bcf1 8e3e
00000360: da71 8b3e cc18 5b3e cfe1 433c b69c a23c
00000370: 2d18 ed3d ce24 7ebd 2491 04be 43eb 873e
00000380: 21d6 e53d dde1 5e3e ce1c 20be aaf6 5b3d
00000390: 5d3f 91be 8021 523e 4dde 30be 6cb0 773e
000003a0: 6c50 90be f9f5 da3d 8b9a 393e 47b3 a33e
000003b0: fdc2 383e 6994 2cbd 38f3 a93c 52fa 17be
000003c0: 01c5 49bd 9e48 c63d 6216 393e 0dc4 80be
000003d0: b864 73bd b452 85bc 378e 12bd fdcd 5fbe
000003e0: 7133 9dbe 7bef 7fbe 07ac fb3d 9976 783e
000003f0: bf5d c63c 232a 863e d450 0bbe cf07 773d

gcn_layer3.bias f4 [10]
0.17485435 -0.103978924 -0.19422784 -0.22994795 0.112185255 0.20911881 0.17931075 -0.10573205
0.34156537 0.21944265
00000000: 050d 333e e7f2 d4bd aae3 46be 7a77 6bbe
00000010: 62c1 e53d 3e23 563e 3d9d 373e 0c8a d8bd
00000020: a8e1 ae3e 93b5 603e

gcn_layer3.batchnorm.weight f4 [100]
1.092104 1.0658644 1.0326989 1.0922521 0.8927391 1.0849016 1.052687 1.0127347
0.98024684 1.1125466 1.116593 1.0914835 1.0660977 0.9921521 1.0234683 1.0107304
0.9939747 1.0314499 1.0663748 1.1240698 1.1467055 1.1565018 1.0557958 0.9661277
1.0572474 1.0684156 1.0787216 1.1073543 1.0917038 1.1339724 1.0611641 1.0811787
0.926116 0.914067 0.9311135 0.93139875 0.94113344 0.9320615 1.0619817 1.1323162
1.1692001 1.115742 1.0205462 1.0126913 1.0051601 1.0068905 0.9537031 1.0740191
1.0786353 1.1009661 1.0704235 1.1234004 1.068766 0.96513337 0.9909043 1.0234659
1.0183808 0.9644228 1.0339639 1.083638 1.0669802 1.1450183 1.178296 0.9471109
0.98918164 1.0360875 1.0029833 1.017103 0.97510517 1.1003956 1.178351 1.0918779
1.1019472 1.1264925 1.0549766 1.0480047 1.0596519 1.0229111 1.0902283 1.0875111
1.1204495 1.0866768 1.0892992 1.0767746 1.0187286 1.0271903 0.9765441 1.005174
1.0839597 1.125152 1.1388786 1.0293425 1.015301 0.99059594 0.98590404 1.0139608
1.1300744 1.1462611 1.0887874 1.1482074
00000000: 10ca 8b3f 3f6e 883f 7a2f 843f ebce 8b3f
00000010: 8d8a 643f 0ede 8a3f 73be 863f 4aa1 813f
00000020: 75f1 7a3f ed67 8e3f 85ec 8e3f bbb5 8b3f
00000030: e475 883f aefd 7d3f 0201 833f 9d5f 813f
00000040: 2075 7e3f 8d06 843f f87e 883f 85e1 8f3f
00000050: 3fc7 923f 4008 943f 5124 873f 2554 773f
00000060: e253 873f d8c1 883f 8d13 8a3f c9bd 8d3f
00000070: f3bc 8b3f 0226 913f 3ad4 873f 1064 8a3f
00000080: f015 6d3f 4b00 6a3f 745d 6e3f 2670 6e3f
00000090: 1fee 703f 959b 6e3f 04ef 873f bdef 903f
000000a0: 59a8 953f a2d0 8e3f 42a1 823f de9f 813f
000000b0: 16a9 803f cae1 803f e325 743f 7579 893f
000000c0: b910 8a3f 75ec 8c3f a303 893f 96cb 8f3f
000000d0: 53cd 883f fb12 773f e7ab 7d3f ee00 833f
000000e0: 4d5a 823f 6ae4 763f ee58 843f a6b4 8a3f
000000f0: cf92 883f f68f 923f 67d2 963f dc75 723f
00000100: 023b 7d3f 849e 843f c261 803f 6e30 823f
00000110: 7ea0 793f c3d9 8c3f 35d4 963f a8c2 8b3f
00000120: 9b0c 8d3f e830 903f 7909 873f 0525 863f
00000130: aca2 873f c0ee 823f 9a8c 8b3f 9033 8b3f
00000140: e46a 8f3f 3a18 8b3f 286e 8b3f c0d3 893f
00000150: b365 823f f97a 833f cbfe 793f 8ba9 803f
00000160: 31bf 8a3f fb04 903f c6c6 913f 7fc1 833f
00000170: 62f5 813f b297 7d3f 3564 7c3f 78c9 813f
00000180: 47a6 903f afb8 923f 635d 8b3f 76f8 923f

gcn_layer3.batchnorm.bias f4 [100]
-0.09666918 0.04150158 0.010833656 -0.0787863 0.04500624 -0.045206577 0.03693915 0.0014568465
0.004186177 -0.046291236 -0.03593449 -0.011747189 0.018154068 -0.015009135 -0.030084796 -0.01115861
0.008892925 -0.011775749 -0.031142797 -0.10049203 -0.10096699 -0.052791633 3.856384e-05 0.014148414
-0.024160052 -0.028841278 -0.027341086 -0.060234148 -0.053010922 -0.08291059 -0.03000319 -0.059195276
0.025806855 0.061631 0.071800955 0.052056544 0.0149438465 0.016692575 -0.024887484 -0.060212955
-0.04828586 -0.0831904 -0.019558787 -0.027096363 -0.010902148 -0.0041908007 0.00838095 -0.0059944834
-0.020046094 -0.047704034 -0.053068668 -0.058013022 0.004984579 0.008692683 0.029099314 -0.007206351
0.025379525 0.006930576 -0.025223047 -0.04606414 -0.045986585 -0.026944658 0.0019049324 -0.004475856
-0.002615047 0.009865738 0.0034670623 0.034668244 0.0045065107 -0.02337844 -0.06517668 -0.07757227
-0.022173595 0.005809498 -0.02115961 0.06867188 -0.009444781 0.0021205381 -0.036958493 -0.048768125
-0.051252794 -0.030339029 -0.041945487 -0.03816421 0.013891508 -0.030500073 0.020246375 -0.0047498927
-0.037725706 -0.020700442 0.021350145 -0.04374236 -0.025714999 -0.0023520163 -0.027592361 -0.122745775
-0.028793946 -0.038429905 -0.013525687 -0.021078797
00000000: 7efa c5bd 90fd 293d a67f 313c b65a a1bd
00000010: 7758 383d 882a 39bd 824d 173d a8f3 be3a
00000020: 332c 893b e19b 3dbd 0b30 13bd 4877 40bc
00000030: d7b7 943c e0e8 75bc 6474 f6bc 9ad2 36bc
00000040: a2b3 113c 12ef 40bc 2e1f ffbc c4ce cdbd
00000050: c8c7 cebd 0a3c 58bd 9cbf 2138 c0ce 673c
00000060: 4deb c5bc 8b44 ecbc 6afa dfbc 15b8 76bd
00000070: fb21 59bd 07cd a9bd 40c9 f5bc bf76 72bd
00000080: e668 d33c ca70 7c3d 610c 933d 3e39 553d
00000090: 09d7 743c debe 883c d6e0 cbbc dca1 76bd
000000a0: 65c7 45bd ba5f aabd c039 a0bc 31f9 ddbc
000000b0: ec9e 32bc fc52 89bb 4150 093c 5f6d c4bb
000000c0: b537 a4bc 4e65 43bd 885e 59bd 109f 6dbd
000000d0: ae55 a33b c16b 0e3c af61 ee3c 4123 ecbb
000000e0: b9e8 cf3c e319 e33b 90a0 cebc c0ad 3cbd
000000f0: 6e5c 3cbd 0bbb dcbc edae f93a 34aa 92bb
00000100: 3561 2bbb e8a3 213c a737 633b 4a00 0e3d
00000110: 5aab 933b 2484 bfbc 5a7b 85bd 36de 9ebd
00000120: 66a5 b5bc 9a5d be3b eb56 adbc d8a3 8c3d
00000130: 48be 1abc baf8 0a3b ca61 17bd 16c1 47bd
00000140: 73ee 51bd 8e89 f8bc 08cf 2bbd 1352 1cbd
00000150: 3599 633c 4adb f9bc badb a53c fda4 9bbb
00000160: 4586 1abd f993 a9bc 80e6 ae3c 302b 33bd
00000170: 43a8 d2bc 4924 1abb 6009 e2bc 2362 fbbd
00000180: 48e1 ebbc ad68 1dbd d89a 5dbc 71ad acbc

gcn_layer3.batchnorm.running_mean f4 [100]
0.21296257 0.21404381 0.2141194 0.21331753 0.21385773 0.21295081 0.21251613 0.21306056
0.21327958 0.21441902 0.21538106 0.21568315 0.21423131 0.21409878 0.21592455 0.2147754
0.21432689 0.21604075 0.21299495 0.2124794 0.2143884 0.21250665 0.21576197 0.21400587
0.21532491 0.21354778 0.21328327 0.21371281 0.21491958 0.21413146 0.21521991 0.21560888
0.21507712 0.21324436 0.21395187 0.21347618 0.21616301 0.21554221 0.21675791 0.21381667
0.21483786 0.2152586 0.21561456 0.2123255 0.21113116 0.21468021 0.21497932 0.21482411
0.21382849 0.21748447 0.21630356 0.2132913 0.21524037 0.21497379 0.2168828 0.2135915
0.21728948 0.21408495 0.2154647 0.21575013 0.21745706 0.21513551 0.21543793 0.21387361
0.2146231 0.2153367 0.21216418 0.21534333 0.21362689 0.2130256 0.21546729 0.21722734
0.2139171 0.2164616 0.21424514 0.2140575 0.21306607 0.21616293 0.21311228 0.21210933
0.2131276 0.21599813 0.21562617 0.21508801 0.21144268 0.21351172 0.21519886 0.21376054
0.21588378 0.21498851 0.21571751 0.21692602 0.21238802 0.21583776 0.2168045 0.214538
0.21399415 0.21595584 0.21582723 0.21126302
00000000: dc12 5a3e 4d2e 5b3e 1e42 5b3e e96f 5a3e
00000010: 85fd 5a3e c70f 5a3e d49d 593e 8c2c 5a3e
00000020: f665 5a3e a990 5b3e da8c 5c3e 0bdc 5c3e
00000030: 745f 5b3e b63c 5b3e 531b 5d3e 15ee 5b3e
00000040: 8278 5b3e c939 5d3e 591b 5a3e 3394 593e
00000050: a288 5b3e 589b 593e b5f0 5c3e 5b24 5b3e
00000060: 227e 5c3e 45ac 5a3e ee66 5a3e 88d7 5a3e
00000070: e113 5c3e 4745 5b3e 9c62 5c3e 93c8 5c3e
00000080: 2d3d 5c3e bb5c 5a3e 3316 5b3e 8099 5a3e
00000090: d659 5d3e 19b7 5c3e c9f5 5d3e c2f2 5a3e
000000a0: 75fe 5b3e c06c 5c3e 10ca 5c3e db6b 593e
000000b0: c432 583e 21d5 5b3e 8a23 5c3e dafa 5b3e
000000c0: dbf5 5a3e 40b4 5e3e ae7e 5d3e 0969 5a3e
000000d0: f967 5c3e 1722 5c3e 8616 5e3e bbb7 5a3e
000000e0: 2281 5e3e 1639 5b3e c7a2 5c3e 9aed 5c3e
000000f0: 10ad 5e3e 7c4c 5c3e c39b 5c3e af01 5b3e
00000100: 28c6 5b3e 3981 5c3e 9141 593e f682 5c3e
00000110: 02c1 5a3e 6223 5a3e 75a3 5c3e d870 5e3e
00000120: 160d 5b3e 1ca8 5d3e 1463 5b3e e431 5b3e
00000130: fe2d 5a3e d159 5d3e 1b3a 5a3e 3033 593e
00000140: 1f3e 5a3e 9d2e 5d3e 1bcd 5c3e 0840 5c3e
00000150: 6e84 583e d1a2 5a3e 175d 5c3e 0be4 5a3e
00000160: a310 5d3e f325 5c3e 0de5 5c3e db21 5e3e
00000170: 3f7c 593e 9304 5d3e 0002 5e3e d9af 5b3e
00000180: 4821 5b3e 8723 5d3e d001 5d3e 5555 583e

gcn_layer3.batchnorm.running_var f4 [100]
0.07363982 0.0742267 0.074248195 0.07394794 0.07431626 0.07390574 0.07373536 0.07367339
0.07377068 0.07425007 0.074749544 0.07500558 0.07419562 0.07375886 0.0751179 0.07439121
0.07434118 0.0748116 0.073746815 0.0732344 0.07440528 0.07349785 0.07511954 0.07414396
0.07444026 0.07375993 0.07351799 0.07361193 0.07448331 0.074095614 0.074677676 0.07477661
0.07446728 0.073698655 0.07403003 0.07387336 0.075253434 0.07465552 0.07538584 0.07393147
0.074445225 0.0748602 0.07475634 0.073362276 0.07273393 0.0743462 0.07430626 0.07460754
0.07380256 0.075357825 0.07489608 0.07354448 0.0745309 0.074193574 0.075226195 0.07338737
0.07542965 0.074198 0.074711 0.074682064 0.075726256 0.07447166 0.07465304 0.07371164
0.07398356 0.074560694 0.07316915 0.074674666 0.07361544 0.0737252 0.07458936 0.07562711
0.07408777 0.07510399 0.073982745 0.07399064 0.07356823 0.075078376 0.0736689 0.07327095
0.07370294 0.07504177 0.075013004 0.074356206 0.07303678 0.07403016 0.07456091 0.073792495
0.07516386 0.07468199 0.075011335 0.07542862 0.07342211 0.07522398 0.075603716 0.07419944
0.074142344 0.07498243 0.07514958 0.072738774
00000000: 79d0 963d 2b04 983d 700f 983d 0472 973d
00000010: 2033 983d e55b 973d 9002 973d 13e2 963d
00000020: 1515 973d 6c10 983d 4a16 993d 879c 993d
00000030: e0f3 973d e30e 973d 6ad7 993d 6b5a 983d
00000040: 3040 983d d336 993d 9208 973d ebfb 953d
00000050: cc61 983d 0a86 963d 46d8 993d cad8 973d
00000060: 2374 983d 720f 973d 9a90 963d dac1 963d
00000070: b58a 983d 71bf 973d 9cf0 983d 7b24 993d
00000080: 4d82 983d 52ef 963d 0e9d 973d eb4a 973d
00000090: 791e 9a3d fee4 983d e463 9a3d 6269 973d
000000a0: bd76 983d 4e50 993d da19 993d f63e 963d
000000b0: 87f5 943d d242 983d e12d 983d d7cb 983d
000000c0: cc25 973d 3455 9a3d 1e63 993d 7d9e 963d
000000d0: a8a3 983d cdf2 973d 3110 9a3d 1e4c 963d
000000e0: dc7a 9a3d 1ff5 973d 1502 993d e9f2 983d
000000f0: 5e16 9b3d 9984 983d b1e3 983d 21f6 963d
00000100: b184 973d 47b3 983d b5d9 953d 08ef 983d
00000110: b1c3 963d 3dfd 963d 4ec2 983d 63e2 9a3d
00000120: 54bb 973d 1fd0 993d 4484 973d 6888 973d
00000130: f1aa 963d b1c2 993d b8df 963d 140f 963d
00000140: 91f1 963d 80af 993d 6ba0 993d 1148 983d
00000150: 4f94 953d 209d 973d 64b3 983d 8520 973d
00000160: 83ef 993d dff2 983d 8b9f 993d 527a 9a3d
00000170: 555e 963d 080f 9a3d 1fd6 9a3d e0f5 973d
00000180: f1d7 973d 6390 993d 06e8 993d 11f8 943d

temporal_layer.conv_1.weight f4 [1, 180, 4]
0.140581 0.14140235 0.16133177 0.1686503 0.0442789 -0.026409812 -0.015275607 -0.030101009
-0.13277572 -0.24617232 -0.24584058 -0.2692097 0.031695064 0.015508623 0.07796746 0.059274983
-0.03296673 -0.018214548 -0.055185825 -0.02668396 -0.0024446587 0.0030467361 -0.06323788 0.010137853
-0.044880822 -0.019624213 -0.051831447 -0.038522325 0.031436842 -0.011492069 0.024134247 0.025319988
0.023120023 0.012446438 0.038173296 0.019721737 -0.01037689 -0.05563804 -0.07936197 -0.06358274
0.2064461 0.16033447 0.1640219 0.1896707 -0.17083926 -0.19383879 -0.23842776 -0.3046895
-0.041735012 -0.2459041 -0.23410572 -0.2605084 0.1658526 0.11721751 0.11581115 0.12154779
-0.04705453 -0.05428639 -0.071653344 -0.07030814 -0.060175657 -0.026837738 0.0025035813 -0.003843179
-0.021448897 -0.041066736 -0.056816168 -0.016881492 0.015791262 0.026095962 0.01594156 0.0516785
0.017918952 0.0043117283 0.008733565 -0.016972318 -0.0060098926 -0.023420868 -0.07810428 -0.041145407
0.16461922 0.15832502 0.16887367 0.16815144 -0.12772578 -0.20707221 -0.15503351 -0.19343215
-0.09672794 -0.18536165 -0.18168086 -0.25202194 0.06363573 0.04860552 0.037988734 0.018684343
-0.047839083 -0.058776524 -0.08041527 -0.052679587 0.020076165 -0.0021340824 -0.008039248 -0.03418389
-0.0041636997 -0.046945635 0.011567843 -0.025657997 0.017578645 0.04660944 0.021048535 0.051557794
0.03053114 -0.008726323 0.029513355 0.030003222 0.012059167 -0.037309315 -0.06498442 -0.034172233
0.2339996 0.17137618 0.21861562 0.14331064 -0.21858461 -0.2577711 -0.26730454 -0.30464643
-0.034154844 -0.24948438 -0.19980128 -0.2512837 0.19450934 0.20832317 0.16940138 0.20026885
-0.077541865 -0.02735841 -0.07324397 -0.034661785 -0.012515587 -0.022781316 0.01061574 -0.03339721
-0.05317173 0.0030816249 -0.025275527 -0.0137221925 0.04815035 0.06973092 0.049819507 0.062324073
0.014217708 0.02974727 -0.0016729884 0.03144757 -0.04381175 -0.032877002 0.002893177 -0.015535497
0.15698206 0.20480172 0.157475 0.1561583 -0.16843459 -0.18131919 -0.20797652 -0.25628287
-0.08493001 -0.26349214 -0.17088677 -0.21760349 0.043650933 0.054296393 -0.008904071 0.05602359
-0.015180534 -0.052674513 -0.03361081 -0.005196969 -0.047565743 0.009130585 -0.02956324 -0.016847432
-0.05128963 -0.007845753 0.028407266 0.00088395795 0.070106775 0.025236841 0.027758202 0.050858893
-0.0032965566 0.041479938 0.057362415 0.0075596017 -0.011174434 -0.01961509 -0.0055044983 -0.022435805
-0.002151004 0.040718276 -0.004829831 0.018326646 0.08409354 0.027501268 0.036707893 0.06849131
0.037564997 0.036069635 0.032941435 0.057799228 0.03679788 0.00045298622 -0.019066056 0.022474276
0.091830656 0.038111735 0.0629074 0.05583708 0.03845384 0.02625982 0.018853372 0.0335237
0.023201 0.06692153 0.09709561 0.09406317 0.0455426 0.060202062 0.038544305 0.07137376
-0.01662325 -0.024893075 0.036230728 0.008277981 0.059436206 0.077600054 0.044488125 0.030334024
0.042947773 -0.004759085 -0.005989479 -0.01173239 0.05865543 0.063520156 0.019642204 0.059131466
0.053438578 0.05368743 0.0077094263 0.015502916 0.030866278 -0.03206089 0.021075455 -0.022381287
00000000: 77f4 0f3e c7cb 103e 2834 253e aab2 2c3e
00000010: cb5d 353d 6459 d8bc 8a46 7abc 6496 f6bc
00000020: 5cf6 07be 9914 7cbe a2bd 7bbe dbd5 89be
00000030: afd2 013d e117 7e3c 67ad 9f3d 53ca 723d
00000040: 1f08 07bd ad36 95bc 880a 62bd 5298 dabc
00000050: 9136 20bb c0ab 473b dd82 81bd 3d19 263c
00000060: f4d4 37bd f5c2 a0bc 364d 54bd 96c9 1dbd
00000070: ebc3 003d 3b49 3cbc 2fb5 c53c dd6b cf3c
00000080: 3466 bd3c 25ec 4b3c 9a5b 1c3d 7b8f a13c
00000090: d503 2abc b7e4 63bd 8788 a2bd ab37 82bd
000000a0: 9b66 533e b82e 243e 5bf5 273e 0939 423e
000000b0: 7df0 2ebe ad7d 46be 6826 74be 4300 9cbe
000000c0: 55f2 2abd 49ce 7bbe 69b9 6fbe 5b61 85be
000000d0: 44d5 293e bc0f f03d 652e ed3d 0cee f83d
000000e0: 40bc 40bd 685b 5ebd fdbe 92bd b7fd 8fbd
000000f0: c07a 76bd d1da dbbc 2013 243b d8dd 7bbb
00000100: 99b5 afbc 9835 28bd 12b8 68bd 0e4b 8abc
00000110: ad5c 813c 33c7 d53c e097 823c d6ac 533d
00000120: c4ca 923c 6649 8d3b 3a17 0f3c 8809 8bbc
00000130: a2ee c4bb 1fdd bfbc 23f5 9fbd 1688 28bd
00000140: f191 283e f41f 223e 38ed 2c3e e42f 2c3e
00000150: 8cca 02be bd0a 54be 1bc1 1ebe 1413 46be
00000160: 4c19 c6bd 72cf 3dbe 8c0a 3abe 0509 81be
00000170: 7353 823d 9516 473d 139a 1b3d e80f 993c
00000180: eaf2 43bd a7bf 70bd c3b0 a4bd 8dc6 57bd
00000190: c576 a43c f6db 0bbb 0db7 03bc 6804 0cbd
000001a0: a56f 88bb 114a 40bd 0d87 3d3c b830 d2bc
000001b0: 1701 903c 8ae9 3e3d fa6d ac3c 442e 533d
000001c0: 711c fa3c daf8 0ebc fec5 f13c 51c9 f53c
000001d0: d093 453c a7d1 18bd 8d16 85bd 2ff8 0bbd
000001e0: 979d 6f3e 3d7d 2f3e c6dc 5f3e 06c0 123e
000001f0: a5d4 5fbe 93fa 83be 24dc 88be 9efa 9bbe
00000200: f3e5 0bbd d578 7fbe b598 4cbe 42a8 80be
00000210: 752d 473e ab52 553e 8e77 2d3e 4713 4d3e
00000220: 45ce 9ebd bf1e e0bc ef00 96bd 84f9 0dbd
00000230: 2d0e 4dbc e29f babc a4ed 2d3c 83cb 08bd
00000240: 9aca 59bd 16f5 493b 9f0e cfbc 0cd3 60bc
00000250: 4d39 453d 16cf 8e3d 8a0f 4c3d 8747 7f3d
00000260: 64f1 683c 8cb0 f33c 2d48 dbba 2bcf 003d
00000270: f373 33bd 09aa 06bd 759b 3d3b 9988 7ebc
00000280: e8bf 203e 8bb7 513e 2041 213e f6e7 1f3e
00000290: 1e7a 2cbe bdab 39be ccf7 54be 8237 83be
000002a0: c9ef adbd 71e8 86be f1fc 2ebe 73d3 5ebe
000002b0: 52cb 323d e565 5e3d 61e2 11bc fe78 653d
000002c0: c6b7 78bc 3bc1 57bd 7dab 09bd 564b aabb
000002d0: 4cd4 42bd 7398 153c 9c2e f2bc a003 8abc
000002e0: 1315 52bd 798b 00bc 5bb6 e83c 6ab9 673a
000002f0: 2494 8f3d 7ebd ce3c 2b65 e33c 6a51 503d
00000300: 0b0b 58bb dee6 293d daf4 6a3d 89b6 f73b
00000310: f914 37bc d3af a0bc 145f b4bb 4bcb b7bc
00000320: dcf7 0cbb 35c8 263d 8f43 9ebb c321 963c
00000330: 3c39 ac3d 574a e13c 045b 163d 2c45 8c3d
00000340: c1dd 193d c1bd 133d 99ed 063d e2be 6c3d
00000350: 60b9 163d c87e ed39 6b30 9cbc f91b b83c
00000360: b611 bc3d 0d1b 1c3d 98d5 803d 6cb5 643d
00000370: c681 1d3d d61e d73c 6372 9a3c 2650 093d
00000380: 0610 be3c 280e 893d 10da c63d 31a4 c03d
00000390: e18a 3a3d 7096 763d a2e0 1d3d 682c 923d
000003a0: 7b2d 88bc 90ec cbbc ac66 143d 5ea0 073c
000003b0: 6173 733d c7ec 9e3d 2e39 363d 0f7f f83c
000003c0: 01ea 2f3d 19f2 9bbb 6443 c4bb 3639 40bc
000003d0: ad40 703d db16 823d b0e8 a03c d633 723d
000003e0: 69e2 5a3d 5ae7 5b3d 5b9f fc3b f1ff 7d3c
000003f0: 47db fc3c 4852 03bd 6fa6 ac3c f658 b7bc
