weights/te50st10lr0.0009b16bcafter.pt (torch, 34322 bytes, 26 tensors)

gcn_layer1.weight f4 [2, 16]
0	0x3e2832a7	0.16425572
1	0x3d82c64f	0.063854806
2	0x3e6b2300	0.2296257
3	0xbe514d10	-0.20439553
4	0xbe9351f5	-0.28773466
5	0x3e349155	0.17633565
6	0xbe4f26aa	-0.20229593
7	0x3e88961b	0.2667702
8	0xbd2c02a6	-0.041994713
9	0xbe00441e	-0.12525985
10	0x3e263764	0.16232067
11	0xbe45ec40	-0.19328403
12	0x3db05f66	0.08611946
13	0xbe128cb1	-0.14311482
14	0x3e5f8ad8	0.21830308
15	0xbd780faf	-0.060561832
16	0x3e1298e9	0.14316143
17	0xbe85ef26	-0.26159018
18	0xbd2e225a	-0.04251323
19	0x3e15bbe7	0.1462246
20	0x3db83948	0.089953005
21	0xbd63567e	-0.055502407
22	0xbd41543b	-0.04719947
23	0xbe1ca473	-0.15297107
24	0xbdc7924d	-0.097447015
25	0x3d390886	0.045174144
26	0xbc14c255	-0.0090795355
27	0xbe654e1e	-0.2239308
28	0xbe9bae5e	-0.3040647
29	0x3dadeb5f	0.08492159
30	0xbe59f75d	-0.21285768
31	0xbd82e177	-0.0639066

gcn_layer1.bias f4 [16]
0	0x3d41d8a5	0.04732575
1	0x3e648702	0.22317126
2	0x3d1f3062	0.0388645
3	0x3cb6eddc	0.022330217
4	0x3e5e9b78	0.21738994
5	0xbe87cde3	-0.26524267
6	0x3d7d497d	0.061837662
7	0x3e4a829d	0.19776388
8	0xbe4807de	-0.19534251
9	0x3c8031c1	0.015648725
10	0x3d6c5e02	0.05770684
11	0xbd2b94c0	-0.041889906
12	0x3e8350f8	0.25647712
13	0x3e47c99f	0.19510506
14	0xbe3c93cb	-0.18415754
15	0xbcee5041	-0.029091002

gcn_layer1.batchnorm.weight f4 [100]
0	0x3f804587	1.0021218
1	0x3f6eeea0	0.9333286
2	0x3f8b43fa	1.088012
3	0x3f8db103	1.1069645
4	0x3f85cb67	1.0452698
5	0x3f8312c8	1.0240107
6	0x3f87092f	1.0549678
7	0x3f8b4502	1.0880435
8	0x3f8d1a49	1.1023647
9	0x3f871cb0	1.055563
10	0x3f83cbfa	1.0296624
11	0x3f993664	1.1969724
12	0x3f9a7841	1.2067949
13	0x3f8891a7	1.066945
14	0x3f80e3c4	1.0069509
15	0x3f7e5e05	0.9936221
16	0x3f79b379	0.9753948
17	0x3f8e4286	1.1114051
18	0x3f89328c	1.0718551
19	0x3f8b521d	1.0884434
20	0x3f84b2d3	1.0367073
21	0x3f89870b	1.0744337
22	0x3f926447	1.1436852
23	0x3f9bb757	1.2165326
24	0x3f9bca16	1.2171047
25	0x3f9007af	1.1252345
26	0x3f8aae1d	1.0834385
27	0x3f8f84c9	1.1212398
28	0x3f8c3795	1.0954462
29	0x3f8cc179	1.0996543
30	0x3f9d7666	1.2301757
31	0x3f92b83f	1.1462477
32	0x3f9da732	1.2316649
33	0x3f906521	1.1280862
34	0x3f832dbe	1.0248334
35	0x3f881506	1.0631416
36	0x3f8b1392	1.0865347
37	0x3f8a5c87	1.0809487
38	0x3f89d32f	1.0767573
39	0x3f928623	1.1447185
40	0x3f9f0ced	1.242582
41	0x3fa39e17	1.278262
42	0x3f7f1971	0.99648196
43	0x3f7980bc	0.9746206
44	0x3f7c5c11	0.9857798
45	0x3f86a41b	1.0518831
46	0x3f888f2c	1.0668693
47	0x3f84b679	1.0368186
48	0x3f854da7	1.0414323
49	0x3fa14aec	1.2600989
50	0x3f9768d8	1.1828871
51	0x3f95c2f4	1.170012
52	0x3f7cdd56	0.9877523
53	0x3f822247	1.0166711
54	0x3f82744a	1.0191739
55	0x3f7f85c1	0.9981347
56	0x3f861577	1.04753
57	0x3f7de952	0.99184144
58	0x3f80a127	1.004918
59	0x3f7cf2ab	0.9880778
60	0x3f7da161	0.9907437
61	0x3f924162	1.1426203
62	0x3f78e416	0.9722303
63	0x3f81d539	1.0143195
64	0x3f82feda	1.0234025
65	0x3f7a15b2	0.97689354
66	0x3f810ffc	1.0083003
67	0x3f70e7b4	0.9410355
68	0x3f73644a	0.95074904
69	0x3f6c02f7	0.92192024
70	0x3f76e2e9	0.9643999
71	0x3f7e5d67	0.9936127
72	0x3f8a6f66	1.0815246
73	0x3f8cb80c	1.0993667
74	0x3f88d1a3	1.0688976
75	0x3f70e21c	0.94095016
76	0x3f7efb46	0.9960216
77	0x3f81bb39	1.0135261
78	0x3f8461bc	1.0342326
79	0x3f7266bb	0.94688004
80	0x3f69088e	0.9102868
81	0x3f66d345	0.9016612
82	0x3f732c94	0.94989896
83	0x3f78f441	0.972477
84	0x3f7a1781	0.97692114
85	0x3f82f1d4	1.023005
86	0x3f82fe5f	1.0233878
87	0x3f92cb0e	1.1468217
88	0x3f8fd4c7	1.123681
89	0x3f8b0757	1.0861615
90	0x3f7cd291	0.987588
91	0x3f7d4d60	0.9894619
92	0x3f7a2227	0.9770836
93	0x3f8007e4	1.0002408
94	0x3f815f44	1.0107198
95	0x3f658d70	0.8966894
96	0x3f6e67e5	0.9312728
97	0x3f7f6ee2	0.9977857
98	0x3f88c38c	1.0684676
99	0x3f80ebce	1.0071962

gcn_layer1.batchnorm.bias f4 [100]
0	0xbd0ee3e0	-0.034885287
1	0x3d17766b	0.036978167
2	0x3da31f5f	0.07964968
3	0x3d3ed527	0.046589997
4	0x3d69d860	0.057091117
5	0xbd4cd9e4	-0.050012484
6	0xbd1caacc	-0.038248822
7	0x3d1bc2c0	0.038027525
8	0x3c315ab2	0.010824846
9	0x3d374e05	0.04475214
10	0xbd18a631	-0.037267867
11	0x3d1c7253	0.038194966
12	0x3d94692c	0.072466224
13	0x3d889ec5	0.06670908
14	0x3d4bda46	0.04976871
15	0x3d3bd4aa	0.04585711
16	0xbcf57625	-0.029963562
17	0x3d751431	0.05983371
18	0x3ce247cc	0.027622126
19	0x3d738ba8	0.05945936
20	0xbcfe8c9f	-0.031072913
21	0xbd4076c9	-0.046988282
22	0x3de430f8	0.111421525
23	0x3e0e00c2	0.13867477
24	0xbd4fb3cc	-0.050708577
25	0x3d026ac0	0.031840086
26	0x3d9192b0	0.071080565
27	0x3d6c8a52	0.0577491
28	0x3d8dec1e	0.069298014
29	0x3d87ab9e	0.0662453
30	0x3d3a3e6f	0.045469698
31	0x3dc3198d	0.09526358
32	0x3e0174cf	0.12642215
33	0x3d31d092	0.0434118
34	0x3d87318b	0.066012464
35	0x3d0fa74a	0.03507165
36	0x3d788287	0.060671356
37	0x3d52db3c	0.05147861
38	0x3c3761f5	0.011192788
39	0x3d922e6d	0.07137761
40	0x3da57ed0	0.08080828
41	0x3cdfca45	0.02731813
42	0x3d48a324	0.048983708
43	0x3d3226a5	0.043493886
44	0x3d3d90f8	0.04628083
45	0xbcd8b2ee	-0.026452508
46	0xbcdebf5e	-0.02719086
47	0xbd0cb4c6	-0.034352086
48	0xbd3ff0df	-0.046860572
49	0x3d278400	0.04089737
50	0x3c8e5a01	0.017376902
51	0x3d474df4	0.048658326
52	0xbd1fa267	-0.03897324
53	0xbd1a4b6e	-0.03766959
54	0xbd00ddba	-0.031461455
55	0xbd22a4af	-0.039707836
56	0xbd25904f	-0.040420827
57	0xbd4dfec9	-0.05029181
58	0xbd1d7841	-0.03844476
59	0xbd34be80	-0.044126987
60	0xbd0ac201	-0.033876423
61	0xbd10c868	-0.035347372
62	0x3d6e2b2e	0.058146648
63	0x3dbd20ba	0.09234758
64	0xbd1c8e62	-0.038221724
65	0xbd0cb7a6	-0.03435483
66	0xbd314adb	-0.04328428
67	0x3cc6a434	0.02424822
68	0x3d054cf2	0.032544084
69	0x3caac3af	0.020845262
70	0xbcffd8c0	-0.031231284
71	0xbd2f01e6	-0.04272642
72	0xb96c6394	-0.0002254381
73	0xbca4a9d1	-0.020100506
74	0xbbeb5154	-0.007181326
75	0xbccc0c6d	-0.024908269
76	0xbcc3a0e1	-0.023880424
77	0xba4d4a3e	-0.00078311923
78	0xbd15dd25	-0.036587853
79	0x3cfdf967	0.031002713
80	0x3caba69d	0.02095347
81	0x3cca9a16	0.024731677
82	0xbd4f240c	-0.050571486
83	0xbcf0d3b9	-0.029397832
84	0xbd24bd61	-0.04021967
85	0xbd0bb99f	-0.03411257
86	0xbd2a024b	-0.041506093
87	0x3c659633	0.014012861
88	0x3b202e9a	0.002444184
89	0x3bd7a420	0.0065808445
90	0xbd364f36	-0.044509135
91	0xbc8bfd1e	-0.01708847
92	0xbcb10e4d	-0.021613264
93	0xbcc0f9b3	-0.023556566
94	0xbccfcf85	-0.025367508
95	0x3d500572	0.050786443
96	0xbb7b3e9a	-0.0038336874
97	0x3d200df1	0.039075796
98	0x3b0ef91d	0.0021815964
99	0x3d206557	0.039159145

gcn_layer1.batchnorm.running_mean f4 [100]
0	0xbc96943f	-0.018381236
1	0xbc9693fc	-0.018381111
2	0xbc96943e	-0.018381234
3	0xbc968c3f	-0.018377421
4	0xbc968c56	-0.018377464
5	0xbc968e60	-0.018378437
6	0xbc968cb9	-0.018377649
7	0xbc9689f9	-0.018376337
8	0xbc968b62	-0.01837701
9	0xbc9681ec	-0.018372498
10	0xbc9680aa	-0.018371899
11	0xbc967510	-0.018366367
12	0xbc9668cc	-0.018360518
13	0xbc965a31	-0.018353553
14	0xbc964886	-0.018345129
15	0xbc9638f5	-0.018337706
16	0xbc9627ae	-0.018329468
17	0xbc961761	-0.018321695
18	0xbc960679	-0.018313633
19	0xbc95f76c	-0.018306457
20	0xbc95f3db	-0.018304756
21	0xbc95f463	-0.01830501
22	0xbc95fc6c	-0.01830884
23	0xbc960379	-0.018312203
24	0xbc960ba4	-0.018316098
25	0xbc961af5	-0.018323401
26	0xbc9629af	-0.018330423
27	0xbc96311f	-0.01833397
28	0xbc963e5e	-0.018340286
29	0xbc9646bb	-0.018344274
30	0xbc9658b5	-0.018352846
31	0xbc965ff4	-0.0183563
32	0xbc9674af	-0.018366186
33	0xbc968227	-0.018372608
34	0xbc969d62	-0.018385593
35	0xbc96bcd6	-0.01840059
36	0xbc96d59f	-0.01841241
37	0xbc96e9da	-0.018422056
38	0xbc96fad4	-0.018430151
39	0xbc96ffcd	-0.018432522
40	0xbc970f42	-0.018439893
41	0xbc9718ea	-0.018444497
42	0xbc972a2f	-0.018452732
43	0xbc97348d	-0.018457675
44	0xbc9749c6	-0.018467795
45	0xbc9762bd	-0.0184797
46	0xbc977d24	-0.018492289
47	0xbc9791eb	-0.018502196
48	0xbc97a20a	-0.018509883
49	0xbc97acd0	-0.01851502
50	0xbc97b86e	-0.01852056
51	0xbc97bc04	-0.01852227
52	0xbc97be22	-0.01852328
53	0xbc97a9ad	-0.018513525
54	0xbc97a203	-0.01850987
55	0xbc97a348	-0.018510476
56	0xbc979a69	-0.018506246
57	0xbc978d0e	-0.018499877
58	0xbc9781e3	-0.018494552
59	0xbc9770d9	-0.018486427
60	0xbc976970	-0.018482894
61	0xbc975dbb	-0.018477311
62	0xbc975b73	-0.018476224
63	0xbc97536a	-0.018472392
64	0xbc974b30	-0.01846847
65	0xbc9752f1	-0.018472167
66	0xbc9759ac	-0.018475376
67	0xbc975b92	-0.018476281
68	0xbc975e5c	-0.018477611
69	0xbc9761ac	-0.01847919
70	0xbc97683c	-0.01848232
71	0xbc976e8f	-0.018485336
72	0xbc977ec8	-0.018493071
73	0xbc978581	-0.018496277
74	0xbc9792f1	-0.018502684
75	0xbc97a15a	-0.018509556
76	0xbc97af1f	-0.018516121
77	0xbc97b650	-0.01851955
78	0xbc97b868	-0.018520549
79	0xbc97b47b	-0.018518677
80	0xbc97ba34	-0.018521406
81	0xbc97b75b	-0.018520048
82	0xbc97c252	-0.018525276
83	0xbc97c848	-0.018528119
84	0xbc97cead	-0.018531168
85	0xbc97e5f0	-0.01854226
86	0xbc97fa12	-0.01855186
87	0xbc9808ee	-0.018558946
88	0xbc981313	-0.018563783
89	0xbc981a43	-0.01856721
90	0xbc982137	-0.018570526
91	0xbc9822ca	-0.018571276
92	0xbc98222b	-0.01857098
93	0xbc9816a1	-0.018565478
94	0xbc980b3f	-0.01856005
95	0xbc9801b8	-0.018555507
96	0xbc980385	-0.018556366
97	0xbc9804b6	-0.018556934
98	0xbc9807d8	-0.018558428
99	0xbc980a83	-0.0185597

gcn_layer1.batchnorm.running_var f4 [100]
0	0x3c6d1b05	0.014471774
1	0x3c6d1d43	0.014472309
2	0x3c6d1f68	0.01447282
3	0x3c6d2149	0.014473268
4	0x3c6d2a7f	0.014475464
5	0x3c6d3697	0.014478347
6	0x3c6d3f49	0.01448042
7	0x3c6d4685	0.014482145
8	0x3c6d4c36	0.014483502
9	0x3c6d4b6d	0.014483315
10	0x3c6d4f51	0.014484243
11	0x3c6d4b6f	0.014483317
12	0x3c6d4719	0.014482283
13	0x3c6d44e0	0.014481753
14	0x3c6d3e42	0.014480175
15	0x3c6d3cb8	0.0144798085
16	0x3c6d3a90	0.014479294
17	0x3c6d362a	0.014478246
18	0x3c6d2de9	0.014476278
19	0x3c6d277a	0.014474744
20	0x3c6d25d9	0.014474356
21	0x3c6d256c	0.014474254
22	0x3c6d2974	0.014475215
23	0x3c6d297e	0.014475225
24	0x3c6d30a8	0.014476933
25	0x3c6d3c4c	0.014479708
26	0x3c6d429a	0.014481211
27	0x3c6d4815	0.014482518
28	0x3c6d4e15	0.014483948
29	0x3c6d51a9	0.014484801
30	0x3c6d5aa1	0.01448694
31	0x3c6d5e04	0.014487747
32	0x3c6d67a0	0.014490038
33	0x3c6d6b70	0.014490947
34	0x3c6d7ce1	0.0144951055
35	0x3c6d912c	0.014499944
36	0x3c6d9e41	0.014503063
37	0x3c6dac53	0.014506417
38	0x3c6db307	0.0145080155
39	0x3c6db68a	0.014508853
40	0x3c6dbeb1	0.014510796
41	0x3c6dc162	0.014511438
42	0x3c6dc9e4	0.0145134665
43	0x3c6dcd0e	0.014514221
44	0x3c6dda45	0.014517372
45	0x3c6dea8c	0.014521252
46	0x3c6df791	0.014524356
47	0x3c6dffdb	0.014526333
48	0x3c6e06f7	0.014528028
49	0x3c6e0c58	0.01452931
50	0x3c6e0f23	0.014529976
51	0x3c6e0de9	0.014529684
52	0x3c6e0bb2	0.014529156
53	0x3c6dfb24	0.014525209
54	0x3c6df9a8	0.014524855
55	0x3c6dfd0f	0.014525666
56	0x3c6dfc39	0.014525467
57	0x3c6dfbec	0.014525395
58	0x3c6df6ad	0.014524144
59	0x3c6df214	0.014523048
60	0x3c6df1e3	0.014523002
61	0x3c6deb43	0.014521423
62	0x3c6de939	0.014520937
63	0x3c6de634	0.014520217
64	0x3c6de72a	0.014520446
65	0x3c6df269	0.014523127
66	0x3c6dfa20	0.0145249665
67	0x3c6e00e9	0.014526584
68	0x3c6e036b	0.014527182
69	0x3c6e078d	0.014528167
70	0x3c6e08d3	0.014528471
71	0x3c6e09b5	0.0145286815
72	0x3c6e0f8b	0.014530073
73	0x3c6e109c	0.014530327
74	0x3c6e18af	0.014532252
75	0x3c6e263a	0.014535481
76	0x3c6e2f7b	0.014537687
77	0x3c6e32eb	0.014538507
78	0x3c6e3668	0.014539339
79	0x3c6e34d3	0.014538961
80	0x3c6e380c	0.01453973
81	0x3c6e326c	0.014538389
82	0x3c6e374b	0.01453955
83	0x3c6e39ad	0.014540118
84	0x3c6e40df	0.014541834
85	0x3c6e5302	0.014546158
86	0x3c6e6293	0.014549869
87	0x3c6e6f02	0.0145528335
88	0x3c6e74d5	0.014554222
89	0x3c6e7af3	0.014555681
90	0x3c6e8275	0.014557471
91	0x3c6e8725	0.014558588
92	0x3c6e88e7	0.014559007
93	0x3c6e853b	0.014558132
94	0x3c6e82e8	0.014557578
95	0x3c6e8106	0.014557129
96	0x3c6e85d0	0.014558271
97	0x3c6e8759	0.014558637
98	0x3c6e8671	0.0145584205
99	0x3c6e870c	0.014558565

gcn_layer2.weight f4 [16, 32]
0	0x3d7509e1	0.059823874
1	0x3ceb4726	0.02872045
2	0xbd87da94	-0.06633487
3	0x3dd0b278	0.1019029
4	0xbca917e3	-0.020641273
5	0x3d618ce7	0.055066016
6	0x3d1cba9a	0.038263895
7	0x3e216a19	0.1576313
8	0x3d86b74e	0.06577931
9	0x3d3fc580	0.04681921
10	0x3de366ac	0.111035675
11	0xbe1502c3	-0.14551835
12	0x3df7e375	0.12103931
13	0x3e12cea6	0.14336643
14	0xbc1a7044	-0.00942618
15	0xbe0b3ce0	-0.1359744
16	0x3d9dd884	0.07707313
17	0xbe41097e	-0.18851277
18	0xbd84c5cf	-0.064830415
19	0xbd84e5bc	-0.06489131
20	0xbe05a5a2	-0.13051465
21	0x3e2607fe	0.16213986
22	0xbe0b47d9	-0.13601626
23	0xbe1335d2	-0.14376
24	0x3e133e57	0.1437925
25	0xbd6d5c25	-0.057949204
26	0xbe136b72	-0.14396456
27	0xbd48c39f	-0.049014684
28	0xbe156b31	-0.14591672
29	0x3e0f4161	0.13989784
30	0x3e5f862c	0.21828526
31	0xbe260723	-0.1621366
32	0xbde80bcd	-0.11330376
33	0x3eb9af63	0.36266622
34	0x3d4f199f	0.050561544
35	0xbef7a7eb	-0.483703
36	0x3ca4ae7b	0.02010273
37	0x3e1a7d9b	0.15086977
38	0xbdf2df15	-0.11858956
39	0xbeab4f1e	-0.334588
40	0xbd8d4d62	-0.06899525
41	0xbdda7abb	-0.1066794
42	0x3d670775	0.056403596
43	0x3c7b8ca1	0.015353353
44	0xbc85fe93	-0.016356742
45	0xbd2f5f30	-0.042815387
46	0x3d5d55b1	0.0540368
47	0x3cc13e14	0.023589171
48	0x3f2758c5	0.65369827
49	0x3eaf0894	0.34186232
50	0x3ed13d52	0.40867096
51	0x3e2f3d8b	0.1711332
52	0xbcf7b26a	-0.030236442
53	0x3ee7b157	0.45252487
54	0x3d9d11fe	0.07669447
55	0xbd71596e	-0.058923177
56	0x3da67a61	0.08128811
57	0x3ccbaea3	0.024863547
58	0x3c4a56d1	0.0123498
59	0x3e243186	0.16034517
60	0x3c2ea972	0.010660516
61	0xbdb2d6a8	-0.08732349
62	0xbd5d2cf2	-0.05399794
63	0xbd537351	-0.051623646
64	0x3da51e78	0.08062452
65	0x3b98126b	0.0046408675
66	0xbe200441	-0.15626623
67	0xbdd7db3b	-0.10539862
68	0xbdef4ab9	-0.11684174
69	0xbe404479	-0.1877612
70	0xbdce9721	-0.10087419
71	0x3d4f3217	0.05058488
72	0xbe152821	-0.14566089
73	0xbdc4033f	-0.09570932
74	0x3e29cfdb	0.16583197
75	0xbe0426bc	-0.12905401
76	0xbc62724c	-0.013821196
77	0xbe04aa11	-0.129555
78	0x3cb2c80f	0.021823911
79	0x3e0be6c0	0.13662243
80	0xbc73c0e3	-0.014877531
81	0xb9e05644	-0.00042788882
82	0x3e1a3e2a	0.15062776
83	0xbb93ef36	-0.0045146
84	0xbdab3c6e	-0.083611354
85	0x3d6b23cd	0.05740719
86	0x3e18b097	0.14911114
87	0x3b228f4d	0.0024804652
88	0xbe49c17b	-0.19702713
89	0xbcb9422d	-0.022614563
90	0x3ba560f3	0.0050469576
91	0xbde065e1	-0.10956932
92	0xbe1a8a4f	-0.15091823
93	0x3d87452e	0.06604992
94	0xba085be1	-0.00052016793
95	0x3bbbea4a	0.0057347165
96	0x3d32177f	0.04347944
97	0xbe4dc59c	-0.20094913
98	0xbdf4cf00	-0.119535446
99	0xbe5d8c02	-0.2163544
100	0xbe057345	-0.13032253
101	0xbd09ba59	-0.03362498
102	0x3d9bdc3c	0.07610366
103	0x3de66e13	0.11251464
104	0xbe13a12d	-0.14416952
105	0x3e53d9a9	0.206885
106	0xbde81549	-0.11332185
107	0x3e2c2fef	0.1681516
108	0x3e6cd633	0.23128586
109	0xbe39c5a9	-0.18141808
110	0x3e541a32	0.20713118
111	0xbd81e77d	-0.06342981
112	0xbcf8a217	-0.030350728
113	0xbdd2539e	-0.10269855
114	0xbd91d806	-0.07121281
115	0x3e0c1f82	0.13683894
116	0x3d84dc3b	0.06487318
117	0xbdb156be	-0.08659123
118	0x3e3e1065	0.18560942
119	0xbd910c2a	-0.07082398
120	0x3ca6c10b	0.020355722
121	0x3d3538f3	0.044243764
122	0xbe2702fc	-0.16309732
123	0x3d2a67b1	0.041602794
124	0x3e199247	0.14997207
125	0xbe3d383b	-0.18478481
126	0x3dbaa07c	0.09112641
127	0xbdcf3f8f	-0.10119545
128	0x3ea88fe2	0.32922274
129	0xbe36722a	-0.17816988
130	0x3d468963	0.048470866
131	0xbe65e8ab	-0.22452037
132	0xbcb1ecb8	-0.021719322
133	0x3ed66a8f	0.41878173
134	0x3e20d8f2	0.15707758
135	0xbe9404b3	-0.28909835
136	0x3c7483c2	0.014923992
137	0xbee197ae	-0.44061035
138	0xbec31d81	-0.38108447
139	0xbd23a6c3	-0.03995396
140	0x3d89860b	0.0671502
141	0xbd78d6bb	-0.060751658
142	0x3d6d98ae	0.058006935
143	0xbe288253	-0.16455965
144	0xbe1dd984	-0.15415007
145	0xbe6f2b31	-0.2335632
146	0x3d35d19a	0.044389345
147	0x3ec756a6	0.38933295
148	0xbd93d513	-0.07218375
149	0xbe97b95f	-0.29633614
150	0x3d95ccb0	0.07314432
151	0xbd1d2e4a	-0.038374223
152	0x3ec9901a	0.39367753
153	0xbbaf6942	-0.005353124
154	0xbdb01980	-0.08598614
155	0x3e90a6b7	0.28252193
156	0x3eb569aa	0.35432178
157	0xbe4a4c61	-0.19755699
158	0xbebe9943	-0.37226304
159	0xbe1ef15a	-0.15521756
160	0xbd8f183b	-0.069870435
161	0x3dee4d21	0.11635805
162	0xbc8b7744	-0.017024644
163	0x3e1eed7d	0.15520282
164	0xbd8dc7d8	-0.06922883
165	0x3dde334c	0.10849628
166	0xbd256501	-0.040379528
167	0x3dcb0b4c	0.09914264
168	0xbe172b26	-0.14762554
169	0xbcd2999a	-0.025708009
170	0xbdf347c0	-0.118789196
171	0x3d1fb785	0.038993377
172	0x3df19543	0.117960475
173	0x3bc24ba4	0.005929427
174	0xbde63809	-0.112411566
175	0x3d9acce3	0.0755861
176	0x3dc2cc67	0.09511643
177	0xbd46ebe2	-0.0485648
178	0xbda4e70a	-0.0805188
179	0xbcce8e91	-0.025214465
180	0xbd073269	-0.03300706
181	0xbae7ea3d	-0.001769371
182	0x3d426c72	0.047466703
183	0x3d1e0bca	0.03858546
184	0xbea740f8	-0.32666755
185	0xba5f18d6	-0.0008510476
186	0x3d6bd8dd	0.057579864
187	0xbe5e10cc	-0.21686095
188	0x3e01c2e9	0.12672009
189	0x3db7bfaf	0.089721076
190	0xbd18d73e	-0.037314646
191	0xbd9e7dfa	-0.07738872
192	0x3dbf0594	0.09327236
193	0x3bf88bdb	0.0075850314
194	0x3df488d6	0.11940162
195	0x3e54f464	0.20796353
196	0x3d8290c8	0.06375271
197	0xbb6bacdb	-0.0035961184
198	0x3c2a8401	0.010407449
199	0x3e461740	0.19344807
200	0xbd517198	-0.051133722
201	0x3dfd3c7a	0.123650506
202	0x3daf7cb9	0.08568711
203	0x3d166a14	0.036722258
204	0xbd91b51b	-0.07114621
205	0x3da037f6	0.07823174
206	0xbd50e50f	-0.050999697
207	0xbab0a900	-0.00134781
208	0x3db8676b	0.090041004
209	0x3e6130eb	0.21991317
210	0xbe6ff67b	-0.23433869
211	0xbd84985e	-0.06474374
212	0x3e164e8b	0.146784
213	0xbe0ec011	-0.13940455
214	0xbbf7ea10	-0.007565744
215	0xbcf286b8	-0.029605255
216	0xbd248e50	-0.040174782
217	0x3e196203	0.14978795
218	0x3d217488	0.039417773
219	0x3da21508	0.07914168
220	0xbd55c376	-0.05218836
221	0x3cd9fb91	0.026609214
222	0x3e185b99	0.14878692
223	0xbda7c44e	-0.08191739
224	0xbce9e959	-0.028553652
225	0xbb32117d	-0.0027171068
226	0xbd97e1e1	-0.0741613
227	0x3e164b4a	0.14677158
228	0x3dee1457	0.11624973
229	0x3d964816	0.07337968
230	0x3d33d810	0.043907225
231	0x3d83377d	0.06407068
232	0xbe2f0899	-0.17093123
233	0xbe01b6ea	-0.12667432
234	0x3da830f5	0.08212463
235	0xbd1fb8aa	-0.03899447
236	0xbd0ab21c	-0.033861265
237	0xbdd482a8	-0.10376483
238	0xbd2f1f85	-0.04275467
239	0xbe02de01	-0.1278
240	0x3de2c427	0.11072569
241	0x3e285933	0.16440277
242	0x3c9f2b27	0.019429756
243	0xbdf64821	-0.12025476
244	0x3d1a897f	0.037728783
245	0x3e0c4bc9	0.13700785
246	0xbdee399f	-0.11632084
247	0xbda241d8	-0.07922715
248	0xbe2a9ae6	-0.16660652
249	0x3d4904d8	0.049076885
250	0xbe2eeefe	-0.17083356
251	0xbdb6d9c5	-0.08928255
252	0x3d3b602f	0.045746025
253	0x3dba6c61	0.09102703
254	0x3d77f350	0.060534775
255	0xbdac3c9d	-0.084099986

gcn_layer2.bias f4 [32]
0	0xbe07f91b	-0.1327862
1	0x3d88ea75	0.06685344
2	0x3e313627	0.17305814
3	0x3e10a199	0.14124145
4	0xbd7b7250	-0.061388314
5	0x3de75095	0.11294667
6	0xbdc844e6	-0.09778766
7	0x3e0ce1e4	0.13758045
8	0x3db08283	0.08618643
9	0xbd460171	-0.04834122
10	0x3d7d04aa	0.061772026
11	0x3e209d9d	0.15685125
12	0x3da21526	0.0791419
13	0xbd3738c6	-0.044731878
14	0xbe0b2e97	-0.13591991
15	0x3e2c2121	0.16809513
16	0xbd98507a	-0.07437225
17	0xbd4b90d1	-0.049698655
18	0xbe48289f	-0.19546746
19	0xbddf6429	-0.10907776
20	0xbcafdfd8	-0.021469042
21	0x3c6724b4	0.014107872
22	0x3d214bb2	0.03937883
23	0xbe243be8	-0.16038477
24	0xbb6c557a	-0.003606169
25	0xbe2bd830	-0.16781688
26	0x3cd11bd0	0.025525957
27	0xbdbe9f4d	-0.09307728
28	0x3dcfd921	0.10148836
29	0x3dca697b	0.098834
30	0xbd87ec25	-0.06636838
31	0x3e2263d5	0.15858395

gcn_layer2.batchnorm.weight f4 [100]
0	0x3f72ad6d	0.94795877
1	0x3f679663	0.90463847
2	0x3f9c373f	1.220436
3	0x3f91f870	1.1403942
4	0x3f96081c	1.1721225
5	0x3f82fcfd	1.0233456
6	0x3f81e8c0	1.0149155
7	0x3f92e388	1.1475687
8	0x3f8f4312	1.1192343
9	0x3f95fa51	1.1717016
10	0x3f85479d	1.041248
11	0x3fa49711	1.2858602
12	0x3fa887de	1.3166463
13	0x3f8ef5bb	1.1168741
14	0x3f670369	0.9023958
15	0x3f8240a1	1.0175973
16	0x3f7baa88	0.98307085
17	0x3f95f4ed	1.171537
18	0x3f96b86d	1.1775032
19	0x3f955d61	1.1669122
20	0x3f816b12	1.01108
21	0x3f91a476	1.1378314
22	0x3fba547a	1.455703
23	0x3fb630c0	1.4233627
24	0x3fa228f9	1.2668754
25	0x3f8be0d4	1.0927987
26	0x3f934885	1.1506506
27	0x3f9d5b13	1.2293419
28	0x3fa05628	1.2526293
29	0x3f903d59	1.1268722
30	0x3fa0294d	1.2512604
31	0x3f9c149c	1.219379
32	0x3fa8ce94	1.3188043
33	0x3f93d1f5	1.1548449
34	0x3f941b3d	1.1570812
35	0x3f8afff6	1.0859363
36	0x3f908112	1.1289389
37	0x3f91a2cc	1.1377807
38	0x3f8cb1dc	1.0991778
39	0x3f9caff5	1.2241198
40	0x3fa04561	1.2521173
41	0x3fa3365e	1.2750967
42	0x3f8bca60	1.0921135
43	0x3f7bb8b8	0.98328733
44	0x3f8877c8	1.0661554
45	0x3f849728	1.0358629
46	0x3f8451c9	1.0337459
47	0x3f8357c5	1.026116
48	0x3f7cd1ef	0.98757833
49	0x3f96b899	1.1775085
50	0x3f982f60	1.1889458
51	0x3f9586fd	1.168182
52	0x3f72816c	0.9472873
53	0x3f801de7	1.0009125
54	0x3f7b404c	0.98144984
55	0x3f7b4137	0.98146385
56	0x3f7cdf28	0.9877801
57	0x3f7884c0	0.9707756
58	0x3f76c7ea	0.96398795
59	0x3f7b989d	0.98279744
60	0x3f791106	0.972916
61	0x3f8b6a13	1.0891746
62	0x3f79e7ab	0.9761912
63	0x3f8a19dd	1.0789143
64	0x3f7dee77	0.99191993
65	0x3f773129	0.9655939
66	0x3f7ac0da	0.9795052
67	0x3f814639	1.0099555
68	0x3f71a6b3	0.9439499
69	0x3f836f25	1.0268294
70	0x3f7b7bb8	0.98235655
71	0x3f7623e1	0.96148497
72	0x3f8a5f2b	1.0810293
73	0x3f84ddbc	1.0380168
74	0x3f84c600	1.0372925
75	0x3f75d9ee	0.9603566
76	0x3f822e15	1.0170313
77	0x3f852523	1.0401958
78	0x3f8186ab	1.0119222
79	0x3f7befb3	0.98412627
80	0x3f5c7ef7	0.8613123
81	0x3f73ef69	0.95287186
82	0x3f765f80	0.9623947
83	0x3f784101	0.9697419
84	0x3f7bd7df	0.9837627
85	0x3f7e48cb	0.99329823
86	0x3f7e8d54	0.994344
87	0x3f968f6c	1.1762519
88	0x3f900b56	1.125346
89	0x3f8b458e	1.0880601
90	0x3f77ee6f	0.96848196
91	0x3f7cc113	0.9873211
92	0x3f7b5db0	0.9818983
93	0x3f80222f	1.0010432
94	0x3f815d23	1.0106548
95	0x3f7a6df5	0.9782403
96	0x3f4bd2f8	0.7961879
97	0x3f8049b0	1.0022488
98	0x3f8ed401	1.1158448
99	0x3f823c87	1.0174721

gcn_layer2.batchnorm.bias f4 [100]
0	0xbc9872e7	-0.018609477
1	0x3d36cc6a	0.04462854
2	0x3cac2634	0.02101431
3	0xbd23ab98	-0.039958566
4	0xbc9c3e1f	-0.01907259
5	0xbcdf1e10	-0.027236015
6	0xbd48693e	-0.04892849
7	0xbc21da1a	-0.00987866
8	0xbd2cd9bf	-0.042199846
9	0xbd53383e	-0.05156731
10	0xbca4b550	-0.020105988
11	0xbcad08d4	-0.021122374
12	0xbc78d8fc	-0.015188452
13	0xbd975f19	-0.07391185
14	0xbe2c3bfd	-0.16819759
15	0xbde3bc44	-0.11119893
16	0x3cdf7552	0.027277622
17	0x3bc60ac8	0.0060437657
18	0x3c19eaf0	0.009394392
19	0x3c86bae6	0.016446542
20	0x3d0eb6a0	0.034842134
21	0xbcab5aab	-0.020917257
22	0x3e1ed10e	0.15509436
23	0x3e19302d	0.14959784
24	0x3ccb52c7	0.024819745
25	0xbbd6a09f	-0.0065499092
26	0x3a3aba95	0.000712314
27	0x3b403235	0.00293268
28	0x3c37a8e3	0.011209699
29	0xbb5acd08	-0.0033386368
30	0xbc58a925	-0.013223921
31	0x3d8cd55e	0.06876634
32	0x3db2ac33	0.08724251
33	0xbc8d57bc	-0.01725375
34	0x3c2137b7	0.009839944
35	0xbcc09a97	-0.023511214
36	0x3c6476b9	0.013944321
37	0x3be3787b	0.0069418526
38	0x3c5acba5	0.013354217
39	0xbb4a71a3	-0.0030890487
40	0x3b74dab1	0.0037361796
41	0x3ca5726e	0.020196166
42	0xbd9e5552	-0.07731117
43	0xbd916efc	-0.07101247
44	0xbd82d61f	-0.063884966
45	0xbcd62365	-0.026139924
46	0xbd32396c	-0.043511793
47	0xbcf3b402	-0.02974892
48	0xbceb24f8	-0.028704152
49	0xbd1e380a	-0.03862766
50	0xbd117406	-0.03551104
51	0xbc3264c8	-0.010888286
52	0xbd2170fa	-0.039414383
53	0xbccbe715	-0.024890462
54	0xbd12143d	-0.035663832
55	0xbcf20755	-0.029544512
56	0xbd1e1451	-0.038593594
57	0xbd34f77e	-0.04418134
58	0xbd34122e	-0.04396265
59	0xbd261479	-0.040546868
60	0xbcc447d5	-0.023960033
61	0xbd3695f9	-0.04457662
62	0x3d19443c	0.03741859
63	0x3d8dd855	0.06926028
64	0xbd2d1f2a	-0.04226605
65	0xbd32a4cf	-0.043614205
66	0xbd3e57b2	-0.04647035
67	0xbdb6adb9	-0.08919854
68	0xbdd00611	-0.10157407
69	0xbdca019c	-0.09863588
70	0xbd184b5d	-0.037181247
71	0xbd2ec5db	-0.04266916
72	0xbc75296c	-0.014963489
73	0xbd10d7a2	-0.035361893
74	0xbc976989	-0.01848294
75	0xbcd18e65	-0.025580594
76	0xbc9a2a5f	-0.018819032
77	0xbc82f2d1	-0.015984925
78	0xbd49ee64	-0.049299613
79	0xbe050e36	-0.12993702
80	0xbe3824ec	-0.17982835
81	0xbe1bec24	-0.15226799
82	0xbd17c02e	-0.03704851
83	0xbd0f9282	-0.03505183
84	0xbd0ab747	-0.033866193
85	0xbd03031b	-0.031985383
86	0xbd362542	-0.044469126
87	0xbd4ab917	-0.04949292
88	0xbd618d35	-0.055066306
89	0xbd41adf2	-0.047285028
90	0xbd1e6530	-0.03867072
91	0xbcaa7c1b	-0.020811131
92	0xbcc5cc8c	-0.024145387
93	0xbc1c7f55	-0.009551843
94	0xbc93ff4c	-0.018066071
95	0xbdfa7650	-0.122295976
96	0xbdf1be2d	-0.11803851
97	0xbe0fd816	-0.14047274
98	0xbd936401	-0.071968086
99	0xbdded602	-0.108806625

gcn_layer2.batchnorm.running_mean f4 [100]
0	0xbd5f70c6	-0.05455091
1	0xbd5f0b35	-0.054454047
2	0xbd62d24d	-0.05537634
3	0xbd6109b4	-0.054940894
4	0xbd627f6f	-0.05529731
5	0xbd5cdd5d	-0.053922046
6	0xbd61a3a5	-0.055087704
7	0xbd5d2e3c	-0.05399917
8	0xbd5f3579	-0.054494355
9	0xbd5f4cfd	-0.05451678
10	0xbd5f53dd	-0.054523338
11	0xbd617320	-0.055041432
12	0xbd5ea402	-0.05435563
13	0xbd6107b3	-0.054938983
14	0xbd5fb3b9	-0.054614756
15	0xbd60dee1	-0.054900054
16	0xbd5d33e1	-0.054004554
17	0xbd60e554	-0.054906204
18	0xbd5ea0d0	-0.05435258
19	0xbd62f363	-0.055407893
20	0xbd5c8463	-0.05383719
21	0xbd5e0cea	-0.054211535
22	0xbd60ff98	-0.054931253
23	0xbd622897	-0.05521449
24	0xbd60bda9	-0.054868374
25	0xbd5d8252	-0.05407936
26	0xbd5fc322	-0.054629453
27	0xbd5dc536	-0.054143153
28	0xbd5fb16d	-0.054612566
29	0xbd5f96b3	-0.054587077
30	0xbd5ec0ad	-0.05438297
31	0xbd5efde9	-0.054441366
32	0xbd63ffe2	-0.05566395
33	0xbd61275a	-0.05496917
34	0xbd6342f5	-0.055483777
35	0xbd604875	-0.0547566
36	0xbd5fdfac	-0.05465667
37	0xbd61d8c7	-0.055138376
38	0xbd5eb9f6	-0.054376565
39	0xbd5c90c7	-0.053849008
40	0xbd63c839	-0.05561087
41	0xbd5dc631	-0.05414409
42	0xbd5fa365	-0.054599185
43	0xbd60d9e8	-0.05489531
44	0xbd61e454	-0.05514939
45	0xbd611adb	-0.054957252
46	0xbd618a26	-0.05506339
47	0xbd62731a	-0.05528555
48	0xbd5dbb63	-0.054133784
49	0xbd620056	-0.0551761
50	0xbd5fa50d	-0.054600764
51	0xbd61fed4	-0.055174664
52	0xbd5f2d8e	-0.054486804
53	0xbd609f6b	-0.054839533
54	0xbd5dd103	-0.054154407
55	0xbd6012fd	-0.05470561
56	0xbd62e445	-0.055393476
57	0xbd605d03	-0.054776203
58	0xbd5f4ae4	-0.05451478
59	0xbd60930b	-0.05482773
60	0xbd6387e0	-0.055549502
61	0xbd5e9819	-0.05434427
62	0xbd628103	-0.055298816
63	0xbd5cdbd1	-0.05392057
64	0xbd6172d1	-0.055041138
65	0xbd5fb753	-0.05461819
66	0xbd5e1814	-0.05422218
67	0xbd5fd15c	-0.05464302
68	0xbd5cfded	-0.0539531
69	0xbd5e0339	-0.054202292
70	0xbd5e0f64	-0.054213896
71	0xbd60cf8c	-0.054885432
72	0xbd5ed9fc	-0.054407105
73	0xbd61cebc	-0.055128798
74	0xbd601a9c	-0.054712877
75	0xbd5b0927	-0.053475525
76	0xbd5cff4e	-0.053954415
77	0xbd5f7e1c	-0.054563627
78	0xbd5d8d4c	-0.05408983
79	0xbd5eb4a4	-0.05437149
80	0xbd61c340	-0.055117846
81	0xbd5e4d9b	-0.05427323
82	0xbd5bfdc5	-0.05370881
83	0xbd6157fb	-0.055015545
84	0xbd5d241a	-0.053989507
85	0xbd625558	-0.05525717
86	0xbd60280d	-0.054725695
87	0xbd5ee745	-0.054419775
88	0xbd5f07bf	-0.054450747
89	0xbd5fdf71	-0.05465645
90	0xbd60be0d	-0.054868747
91	0xbd60794e	-0.054803185
92	0xbd61bd16	-0.055111967
93	0xbd5fc7b8	-0.054633826
94	0xbd61a39b	-0.055087667
95	0xbd5f84f5	-0.054570157
96	0xbd614e3a	-0.055006243
97	0xbd61e3d2	-0.055148907
98	0xbd5e6463	-0.054294955
99	0xbd5eb8bd	-0.0543754

gcn_layer2.batchnorm.running_var f4 [100]
0	0x3da8633a	0.08222051
1	0x3da7603a	0.08172651
2	0x3dab7aa8	0.08373004
3	0x3da92c52	0.082604066
4	0x3dab5dfb	0.08367535
5	0x3da465c5	0.080272235
6	0x3daa3a14	0.08311859
7	0x3da550b7	0.08072036
8	0x3da804bd	0.08204029
9	0x3da6fa3f	0.081531994
10	0x3da7af95	0.081877865
11	0x3daa7cc3	0.08324578
12	0x3da689e5	0.0813177
13	0x3da9d2dc	0.08292171
14	0x3da7f37f	0.0820074
15	0x3da9c3a1	0.082892664
16	0x3da4d6b8	0.08048767
17	0x3da92473	0.08258905
18	0x3da6d616	0.081463024
19	0x3dabb440	0.08383989
20	0x3da41e44	0.08013585
21	0x3da5d801	0.0809784
22	0x3da981f3	0.08276739
23	0x3dab34db	0.08359691
24	0x3da9799b	0.082751475
25	0x3da633d6	0.08115356
26	0x3da85e6c	0.082211345
27	0x3da613cc	0.08109245
28	0x3da781cf	0.08179056
29	0x3da7e3e6	0.08197765
30	0x3da6e710	0.081495404
31	0x3da6bf80	0.081419945
32	0x3dad2269	0.08453829
33	0x3da9f737	0.082991056
34	0x3dac7436	0.08420603
35	0x3da84006	0.082153365
36	0x3da8cc17	0.08242052
37	0x3daaae30	0.08334005
38	0x3da6c10c	0.081422895
39	0x3da471dd	0.0802953
40	0x3dad5282	0.08463003
41	0x3da5f89a	0.081040576
42	0x3da7c142	0.08191158
43	0x3da97652	0.08274521
44	0x3daa8d49	0.08327729
45	0x3da9b091	0.082856305
46	0x3daa27e9	0.083083935
47	0x3dabef3f	0.08395242
48	0x3da650b9	0.081208654
49	0x3dab084f	0.08351194
50	0x3da82036	0.08209269
51	0x3dab052c	0.08350596
52	0x3da7c9e0	0.081928015
53	0x3da9b3da	0.08286257
54	0x3da609fd	0.08107374
55	0x3da8a73f	0.08235025
56	0x3dac6525	0.08417729
57	0x3da90053	0.08252015
58	0x3da7a47f	0.08185672
59	0x3da965b4	0.082713515
60	0x3dad2bb9	0.08455605
61	0x3da6b1ea	0.08139403
62	0x3dab4755	0.08363215
63	0x3da4e27e	0.080510125
64	0x3daa5a75	0.083180346
65	0x3da7d08d	0.08194075
66	0x3da61de1	0.08111168
67	0x3da85d0e	0.08220874
68	0x3da51486	0.08060555
69	0x3da5dd98	0.08098906
70	0x3da679a1	0.081286676
71	0x3da9b309	0.08286101
72	0x3da71a29	0.081592865
73	0x3dab3752	0.08360161
74	0x3da8e486	0.082467124
75	0x3da2ab84	0.0794287
76	0x3da530b5	0.08065931
77	0x3da8054a	0.08204134
78	0x3da56c0a	0.080772474
79	0x3da6bd70	0.08141601
80	0x3daacf63	0.08340337
81	0x3da63153	0.081148766
82	0x3da4148c	0.080117315
83	0x3da9cdf5	0.08291236
84	0x3da4eb02	0.08052637
85	0x3daba81f	0.08381676
86	0x3da950ca	0.082673624
87	0x3da774eb	0.08176597
88	0x3da798f1	0.08183468
89	0x3da86f67	0.08224373
90	0x3da9fbd4	0.082999855
91	0x3da8d509	0.08243758
92	0x3daa8ddd	0.083278395
93	0x3da87a21	0.08226419
94	0x3daa3544	0.08310941
95	0x3da7c2fd	0.08191488
96	0x3daa48e1	0.08314682
97	0x3daab968	0.08336145
98	0x3da70588	0.08155352
99	0x3da6b5d5	0.081401505

gcn_layer3.weight f4 [32, 10]
0	0xbe14065e	-0.14455554
1	0x3e2a66ec	0.16640824
2	0x3e85ed6b	0.26157698
3	0x3ea0f00d	0.31433144
4	0x3e431025	0.19049127
5	0xbdb6e8b6	-0.08931105
6	0xbea3023c	-0.31837642
7	0xbe8e51f3	-0.27796897
8	0xbe57f23f	-0.21088503
9	0x3e658807	0.22415172
10	0xbe053bcf	-0.13011096
11	0xbdfbd0db	-0.122956954
12	0x3e237400	0.15962219
13	0x3dae6eb0	0.08517206
14	0x3cb2cfb8	0.021827564
15	0xbbe79fec	-0.0070686247
16	0x3d767952	0.060174294
17	0xbe55bc26	-0.20872554
18	0xbd024314	-0.031802252
19	0xbd2974f4	-0.0413713
20	0x3d43ad10	0.047772467
21	0xbe13806e	-0.14404461
22	0xbe843da8	-0.2582829
23	0xbde0b332	-0.10971679
24	0xbea189d2	-0.3155046
25	0x3e33c8a6	0.1755701
26	0xbdc5afca	-0.0965267
27	0x3e8b2929	0.2717984
28	0xbccd9460	-0.025095165
29	0x3dd6e268	0.10492402
30	0xbdd58406	-0.10425572
31	0x3da09b1f	0.07842087
32	0x3e30b605	0.17256935
33	0x3e41ae0c	0.1891405
34	0xbdd791c8	-0.105258524
35	0x3e10fb0e	0.1415827
36	0x3dc63aec	0.09679207
37	0x3e2f9522	0.17146733
38	0x3e7c9035	0.24664386
39	0x3e4279d1	0.18991782
40	0xbde3b2f1	-0.11118115
41	0x3db0dee5	0.08636264
42	0xbe8cb1d8	-0.27479434
43	0xbe585085	-0.21124466
44	0x3e9ed3c1	0.3102093
45	0x3da766ca	0.08173902
46	0xbe95dc2f	-0.2926955
47	0x3e82c8c1	0.25543788
48	0xbd873e29	-0.06603653
49	0x3c3b025a	0.011414135
50	0x3e36adc8	0.1783973
51	0xbe997123	-0.2996913
52	0xbe1092d0	-0.14118505
53	0xbc7add0a	-0.015311489
54	0xbde08f18	-0.10964793
55	0xbe7b8215	-0.24561341
56	0xbeba7a66	-0.36421508
57	0x3c8374f0	0.016046971
58	0xbe2ebcf2	-0.17064264
59	0xbea30887	-0.31842443
60	0xbe4a1f76	-0.19738564
61	0x3e1df854	0.15426761
62	0xbcec2eaf	-0.028830854
63	0x3d36255e	0.04446923
64	0x3d9394e3	0.07206132
65	0x3e809585	0.25114074
66	0xbe0fd44e	-0.14045832
67	0x3dcdabe5	0.10042552
68	0x3e048f47	0.12945281
69	0xbd83af0f	-0.06429874
70	0xbdb1f667	-0.08689576
71	0x3e095ec9	0.13415064
72	0x3db86ab9	0.09004731
73	0xbdb0bc9d	-0.08629725
74	0x3de35ce4	0.11101702
75	0x3df14a6c	0.11781773
76	0x3d217ce7	0.039425757
77	0x3dba6102	0.09100534
78	0xbcee3fec	-0.029083215
79	0xbe09a07e	-0.13440129
80	0x3cd4e513	0.025988137
81	0x3e8ed0a3	0.27893552
82	0x3de1b123	0.11020114
83	0x3d0a682a	0.033790745
84	0xbe892105	-0.26783004
85	0x3e530331	0.20606686
86	0xbe8ac3bd	-0.2710246
87	0xbe1e8625	-0.1548086
88	0x3e9b46e7	0.30327532
89	0xbe24d186	-0.16095552
90	0xbe2ea707	-0.17055903
91	0xbe4cf014	-0.20013458
92	0x3eb648f6	0.3560254
93	0x3e1a4cc9	0.15068354
94	0x3ebc774e	0.36809772
95	0x3e967132	0.29383236
96	0x3d943c19	0.07238025
97	0xbce92043	-0.028457766
98	0xbc966537	-0.01835881
99	0xbe01f164	-0.1268974
100	0x3d66e934	0.056374744
101	0x3d3fb936	0.04680749
102	0x3c2d65c7	0.010583348
103	0xbe84e636	-0.25956887
104	0xbe866544	-0.26249135
105	0xbcde1782	-0.027110819
106	0x3e9d852d	0.30765668
107	0x3e6c159e	0.23055121
108	0x3b26d460	0.0025456175
109	0x3d113b1d	0.035456765
110	0xbd8f5d95	-0.07000271
111	0xbe53f2f2	-0.20698145
112	0x3d612faf	0.054977115
113	0xbe9fe56d	-0.31229725
114	0xbe766384	-0.240614
115	0x3de8f993	0.113757275
116	0xbe0dccf9	-0.13847722
117	0xbe0bd015	-0.13653596
118	0xbd522e69	-0.05131379
119	0x3e538772	0.20657137
120	0xbe4d27a4	-0.20034653
121	0xbe31b6b6	-0.17354855
122	0xbe82cbed	-0.25546208
123	0x3d2951ac	0.041337654
124	0x3e560178	0.20898998
125	0xbca4e4bb	-0.020128598
126	0xbdd536bf	-0.104108326
127	0x3dfe00f0	0.124025226
128	0xbe19733f	-0.14985369
129	0x3dafdb40	0.085867405
130	0xbd117074	-0.035507634
131	0x3e4c1091	0.19928195
132	0x3e951d2f	0.29123828
133	0xbe67eb29	-0.226483
134	0xbe8c7ac2	-0.27437407
135	0xbc167299	-0.009182596
136	0x3d20780c	0.039176986
137	0x3e4f79e8	0.20261347
138	0xbe8cb096	-0.27478474
139	0xbdc497cd	-0.09599266
140	0x3dfe8d71	0.124293216
141	0x3d3157c9	0.04329661
142	0xbe83038b	-0.2558864
143	0x3e7c2ee3	0.24627261
144	0x3e50702d	0.20355292
145	0xbe987c0d	-0.29782143
146	0xbe9ec7f9	-0.31011942
147	0x3e894f8a	0.26818496
148	0xbedd7b63	-0.432582
149	0x3dc82538	0.09772724
150	0xbe31bd10	-0.17357278
151	0x3e46a8ca	0.19400325
152	0x3e12517c	0.14288896
153	0xbdddbba2	-0.10826804
154	0x3e402c92	0.18767002
155	0xbd49c600	-0.049261093
156	0x3cdce870	0.026966304
157	0xbca9bfe0	-0.020721376
158	0x3e83ecaf	0.25766513
159	0xbe9ad94d	-0.30243912
160	0xbb664ca8	-0.0035140906
161	0x3d6c8030	0.057739437
162	0xbe84f922	-0.25971323
163	0xbe9a61cf	-0.30152747
164	0x3e9fb40c	0.31192052
165	0x3d5b58d1	0.0535515
166	0x3e747416	0.23872408
167	0x3c172647	0.009225435
168	0x3e1695cc	0.1470558
169	0xbd812024	-0.063049585
170	0x3e507700	0.20357895
171	0x3e6b3950	0.22971082
172	0xbeb18dca	-0.3467849
173	0xbe21cdd6	-0.15801176
174	0xbe8476ac	-0.2587179
175	0xbee9c8b7	-0.45660946
176	0x3f09ba3a	0.53799784
177	0xbe234b01	-0.1594658
178	0xbeb72d98	-0.35776973
179	0xbdfe5522	-0.124185815
180	0xbe80dacf	-0.25166938
181	0xbea7c628	-0.3276837
182	0xbecbde7e	-0.39818186
183	0xbe1ee620	-0.15517473
184	0x3b533ef1	0.003223356
185	0xbdb58326	-0.08862905
186	0x3e38ac92	0.1803458
187	0xbe308012	-0.17236355
188	0x3e212acb	0.1573898
189	0x3d89459f	0.06702732
190	0xbe199ce0	-0.1500125
191	0x3e239d6b	0.15978019
192	0xbefa3a5b	-0.48872647
193	0x3e119ef1	0.14220788
194	0xbcc4845d	-0.023988897
195	0xbecbfcb3	-0.39841232
196	0xbeb8d61c	-0.36100852
197	0xbe033a09	-0.12815107
198	0x3d7ab40f	0.061206874
199	0xbe62f267	-0.22162782
200	0xbe8504dc	-0.2598027
201	0x3e0ccb58	0.13749444
202	0x3e24d7d6	0.1609796
203	0x3cb02520	0.021502078
204	0xbe8ff9ec	-0.28120363
205	0xbd81c058	-0.06335515
206	0x3df3a854	0.118973404
207	0x3ea1e639	0.31620958
208	0xbd4d3178	-0.050096005
209	0xbe590d15	-0.21196397
210	0xbe4403b2	-0.19142035
211	0xbdbfa0e7	-0.093568616
212	0x3db1963a	0.086712316
213	0x3e899a7f	0.26875684
214	0xbcd09d57	-0.02546565
215	0x3d752568	0.059850127
216	0x3ead2d6d	0.3382372
217	0xbdf82466	-0.121163175
218	0xbdf169df	-0.117877714
219	0xbe9ba881	-0.30401996
220	0x3df095ee	0.11747347
221	0xbdb844e5	-0.089975156
222	0x3e061da2	0.13097242
223	0x3c6b2369	0.014351704
224	0x3d76a121	0.06021226
225	0x3e94d6be	0.29070085
226	0xbdc84a1c	-0.0977976
227	0x3ea3cb10	0.31990862
228	0xbecc73bb	-0.39932045
229	0xbea23da0	-0.3168764
230	0x3dbc53b0	0.091956496
231	0x3e8cf221	0.2752848
232	0x3e1547f6	0.14578232
233	0xbe9bb93d	-0.30414763
234	0x3e717aa2	0.23581937
235	0xbde85d4a	-0.113459185
236	0x3ddb0bdc	0.10695621
237	0xbe4468e3	-0.19180636
238	0x3d7ace10	0.061231673
239	0xbe898763	-0.26861104
240	0x3e28b54a	0.16475406
241	0x3d790ea8	0.060804993
242	0xbcc07400	-0.023492813
243	0xbeb3555d	-0.35026065
244	0xbf0ae847	-0.5426068
245	0xbf0ef103	-0.55836505
246	0xbe2217d1	-0.15829398
247	0xbe13d938	-0.14438331
248	0xbe568597	-0.20949398
249	0xbe4c4d92	-0.19951466
250	0x3e60985a	0.21933118
251	0xbe869adc	-0.26290023
252	0xbe8a9db0	-0.2707343
253	0x3e2164a2	0.15761045
254	0xbe0a77eb	-0.13522308
255	0xbe62c770	-0.22146392

gcn_layer3.bias f4 [10]
0	0x3e6ada16	0.22934756
1	0xbdc8b63c	-0.098003834
2	0x3e7570ae	0.23968765
3	0xbe433474	-0.19062978
4	0x3de07d52	0.10961403
5	0x3daa3aa4	0.08311966
6	0xbda67ec3	-0.08129647
7	0x3d729de1	0.059232596
8	0x3dfae52f	0.122507446
9	0xbd2a3708	-0.04155639

gcn_layer3.batchnorm.weight f4 [100]
0	0x3f7d47d7	0.98937744
1	0x3f6ac7c0	0.91711044
2	0x3f97eef1	1.1869794
3	0x3f90e3b0	1.1319485
4	0x3f958908	1.1682444
5	0x3f7c6df2	0.98605263
6	0x3f800bba	1.0003579
7	0x3f8dcaed	1.1077553
8	0x3f8dbf32	1.1073973
9	0x3f8b575b	1.0886034
10	0x3f8049d1	1.0022527
11	0x3f98ed21	1.1947366
12	0x3f988d61	1.1918145
13	0x3f8c29d8	1.095027
14	0x3f79ad79	0.97530323
15	0x3f8371af	1.0269068
16	0x3f7b4ea3	0.98166865
17	0x3f8a28f4	1.0793748
18	0x3f880cbe	1.0628889
19	0x3f8e0b89	1.109727
20	0x3f7a849f	0.97858614
21	0x3f8b5160	1.0884209
22	0x3fc7dce1	1.5614282
23	0x3fae1e51	1.3603002
24	0x3f8fa0c4	1.1220937
25	0x3f87b408	1.0601816
26	0x3f8f8d38	1.1214972
27	0x3f8f4b3d	1.1194836
28	0x3f943373	1.1578201
29	0x3f87839e	1.0587041
30	0x3f937b37	1.1521977
31	0x3f949b41	1.160988
32	0x3fa0fbb5	1.2576815
33	0x3f8df103	1.1089176
34	0x3f8b1c4a	1.0868008
35	0x3f888fd9	1.0668899
36	0x3f89a9e7	1.0754975
37	0x3f85b47f	1.0445708
38	0x3f851509	1.0397044
39	0x3f991c54	1.196177
40	0x3f9a750c	1.206697
41	0x3f96eb99	1.1790649
42	0x3f8f3da8	1.1190691
43	0x3f86dd28	1.0536242
44	0x3f8e3f04	1.1112981
45	0x3f820025	1.0156294
46	0x3f85c854	1.045176
47	0x3f801c4b	1.0008634
48	0x3f807ef3	1.0038742
49	0x3f99ddf6	1.2020862
50	0x3f974f25	1.1821028
51	0x3f98f67b	1.195022
52	0x3f7a4705	0.9776462
53	0x3f805984	1.0027318
54	0x3f7e46d3	0.9932682
55	0x3f7cd6e7	0.98765415
56	0x3f80dce4	1.006741
57	0x3f7bbee0	0.9833813
58	0x3f7c57b0	0.985713
59	0x3f78678b	0.97032994
60	0x3f7aa01e	0.9790057
61	0x3f874a10	1.0569477
62	0x3f763ce6	0.96186674
63	0x3f88fb34	1.0701661
64	0x3f7d14ea	0.9886004
65	0x3f7a6548	0.9781079
66	0x3f7cbd2b	0.9872615
67	0x3f818108	1.0117502
68	0x3f85bd51	1.04484
69	0x3f8913d9	1.0709182
70	0x3f7db5ab	0.9910533
71	0x3f79b498	0.9754119
72	0x3f891539	1.0709602
73	0x3f882e08	1.0639048
74	0x3f8511ec	1.0396094
75	0x3f773394	0.96563077
76	0x3f7ec8b0	0.99524975
77	0x3f84b5b0	1.0367947
78	0x3f840fbf	1.0317305
79	0x3f85f3a4	1.0464978
80	0x3f79f2d8	0.97636175
81	0x3f85f07f	1.0464019
82	0x3f76de57	0.96433014
83	0x3f7d1efc	0.98875403
84	0x3f7a493c	0.97767997
85	0x3f7f8498	0.99811697
86	0x3f7fa3d7	0.99859375
87	0x3f8ebb57	1.1150922
88	0x3f8df3c3	1.1090015
89	0x3f8cda89	1.1004192
90	0x3f782485	0.96930724
91	0x3f7a35bb	0.97738236
92	0x3f7a75d1	0.97836024
93	0x3f7c4c97	0.98554367
94	0x3f7e3a91	0.99308115
95	0x3f822ced	1.016996
96	0x3f5f98b7	0.873424
97	0x3f8693ab	1.0513815
98	0x3f8c098e	1.0940416
99	0x3f8a292b	1.0793813

gcn_layer3.batchnorm.bias f4 [100]
0	0x3d23cc1c	0.039989576
1	0xbcdca5ee	-0.02693459
2	0xbd2a45b6	-0.041570388
3	0xbd8ca5ee	-0.06867586
4	0xbd60e440	-0.054905176
5	0x3d026568	0.03183499
6	0x3c9b58c4	0.018963225
7	0xb9c3edd4	-0.00037370494
8	0x3b8d9762	0.0043210248
9	0xbc08fa1f	-0.008360415
10	0x3cc50ae0	0.024053037
11	0x3d0ce95b	0.034402233
12	0x3cab3fb1	0.020904394
13	0xbd930dbf	-0.07180356
14	0xbd82dcb2	-0.063897505
15	0xbd8ff7cb	-0.07029685
16	0x3c517746	0.012784785
17	0x3d20ad10	0.039227545
18	0x3ccdb122	0.025108878
19	0x3cbb46a7	0.022860838
20	0x3d602891	0.054726187
21	0x3e08c607	0.13356791
22	0x3e1d3b3d	0.15354629
23	0x3e0de754	0.13857776
24	0x3dfadd3d	0.12249229
25	0xba324651	-0.0006800639
26	0xbcc307dc	-0.023807459
27	0x3c8d6850	0.017261654
28	0x3cef9626	0.029246401
29	0x3c3fd167	0.01170764
30	0x3d6ad037	0.057327475
31	0x3d3a506a	0.045486845
32	0x3d414dc4	0.047193304
33	0xbbe4892b	-0.0069743595
34	0xbd308446	-0.043094896
35	0xbd096436	-0.033542834
36	0x3ca75816	0.020427745
37	0xbd0c18d0	-0.03420335
38	0xbb9c3265	-0.0047667497
39	0x3d1f4bb0	0.03889054
40	0x3d6f67b1	0.058448497
41	0x3d649bfc	0.05581282
42	0xbd9cba0d	-0.07652674
43	0xbdb985c2	-0.090587154
44	0xbde262f1	-0.11054028
45	0xbc802d80	-0.015646696
46	0xbb494c1c	-0.003071553
47	0xbcc9fa23	-0.024655407
48	0xbbd9db35	-0.006648446
49	0x3d472dde	0.048627727
50	0xbc9c8141	-0.019104602
51	0xbccf0464	-0.025270648
52	0xbd1e98ad	-0.03871982
53	0xbc99246a	-0.018694121
54	0xbc70df6e	-0.014701707
55	0xbc60fc69	-0.013732054
56	0xbc8ee058	-0.01744096
57	0xbc9b9cab	-0.018995604
58	0xbc6e50f5	-0.014545669
59	0xbcb6506a	-0.022255141
60	0xbbfc0c9f	-0.0076919342
61	0x3d3c62fe	0.045992844
62	0xbd5d3750	-0.05400783
63	0x3d25e458	0.04050097
64	0xbb8f54c3	-0.004374118
65	0xbca0e57f	-0.019640682
66	0xbb380db3	-0.0028084337
67	0xbdc10d38	-0.094263494
68	0xbe071a6e	-0.13193676
69	0xbe03ca5d	-0.12870164
70	0xbd3a79a4	-0.04552616
71	0xbc06a3f2	-0.008217799
72	0x3c4bd1ab	0.012440125
73	0xbc523223	-0.012829336
74	0xbcc29114	-0.02375082
75	0xbd1b8816	-0.03797158
76	0xbd2c3447	-0.042042043
77	0xba9ad1f5	-0.001181184
78	0xbca4263b	-0.020037761
79	0xbddb7797	-0.10716169
80	0xbe0bb571	-0.13643433
81	0xbe07498f	-0.13211654
82	0x3b99a80b	0.0046892217
83	0x3cd17a2f	0.025570957
84	0xbc94a74b	-0.018146178
85	0xbcb849ca	-0.022496123
86	0xbc5e18be	-0.013555704
87	0xbc100754	-0.00879081
88	0xbc3dbcb4	-0.011580635
89	0xbcea1264	-0.028573222
90	0xbc3d7fe1	-0.011566133
91	0xbc189aa6	-0.009314215
92	0xbc98c2d2	-0.018647585
93	0x3c1d700a	0.009609232
94	0x3c370df6	0.011172762
95	0xbe136e86	-0.1439763
96	0xbd741f70	-0.059600294
97	0xbda5185c	-0.08061287
98	0xbd236cbb	-0.039898615
99	0xbdd1bbbb	-0.10240885

gcn_layer3.batchnorm.running_mean f4 [100]
0	0x3e4e35df	0.20137738
1	0x3e4f7c1a	0.20262185
2	0x3e4fcdb6	0.20293316
3	0x3e50dd80	0.20396996
4	0x3e51df0d	0.20495243
5	0x3e51de56	0.2049497
6	0x3e4efff6	0.20214829
7	0x3e53887e	0.20657536
8	0x3e51d32d	0.20490713
9	0x3e52416d	0.2053277
10	0x3e524707	0.20534907
11	0x3e51f180	0.20502281
12	0x3e523cfd	0.20531078
13	0x3e5506a3	0.20803313
14	0x3e508aa6	0.2036539
15	0x3e541e6c	0.2071473
16	0x3e526d77	0.2054957
17	0x3e50c071	0.2038591
18	0x3e53a034	0.20666581
19	0x3e4f59ae	0.20249054
20	0x3e4fb900	0.20285416
21	0x3e4f3d55	0.2023824
22	0x3e5387c2	0.20657256
23	0x3e50f858	0.20407236
24	0x3e521a39	0.20517816
25	0x3e4f5129	0.20245804
26	0x3e50bc08	0.20384228
27	0x3e50b8f2	0.20383051
28	0x3e516d93	0.20451955
29	0x3e53b053	0.20672731
30	0x3e504ba2	0.20341352
31	0x3e50b61c	0.20381969
32	0x3e52fb7f	0.2060375
33	0x3e51723f	0.20453738
34	0x3e530511	0.20607401
35	0x3e52e49d	0.20595022
36	0x3e4f6356	0.20252737
37	0x3e5318a0	0.20614862
38	0x3e4f4470	0.2024095
39	0x3e4dab66	0.20084915
40	0x3e504f06	0.20342645
41	0x3e51fb84	0.20506102
42	0x3e4ef14f	0.2020924
43	0x3e50084d	0.20315666
44	0x3e518ab1	0.20463063
45	0x3e52b41f	0.20576523
46	0x3e4d6380	0.20057487
47	0x3e53669b	0.2064461
48	0x3e51946d	0.20466776
49	0x3e4e5e35	0.20153125
50	0x3e538697	0.2065681
51	0x3e50876a	0.20364156
52	0x3e4cbdb8	0.19994247
53	0x3e52becb	0.20580594
54	0x3e4edc2e	0.2020118
55	0x3e511452	0.20417908
56	0x3e5298a9	0.20566048
57	0x3e51733f	0.20454119
58	0x3e4f1013	0.20220976
59	0x3e51d2ee	0.2049062
60	0x3e51fd48	0.20506775
61	0x3e4fb3c2	0.20283416
62	0x3e51100c	0.20416278
63	0x3e500fa1	0.20318462
64	0x3e515c9b	0.20445482
65	0x3e4f8128	0.20264113
66	0x3e4fc76a	0.20290914
67	0x3e515333	0.20441894
68	0x3e50fb7b	0.20408432
69	0x3e502d98	0.20329893
70	0x3e53110b	0.2061197
71	0x3e4f33ce	0.20234606
72	0x3e5382c7	0.20655356
73	0x3e50ef6d	0.20403834
74	0x3e53a3a8	0.20667899
75	0x3e4e8634	0.20168382
76	0x3e5201ca	0.20508495
77	0x3e4fdbae	0.20298645
78	0x3e4f8994	0.20267326
79	0x3e4fbad8	0.20286119
80	0x3e52b0fc	0.20575327
81	0x3e4e3762	0.20138314
82	0x3e4e9a9d	0.20176168
83	0x3e500a55	0.20316441
84	0x3e52fbec	0.20603913
85	0x3e51d06c	0.20489663
86	0x3e5120dd	0.20422693
87	0x3e535885	0.20639236
88	0x3e50e6dd	0.20400567
89	0x3e4e5a87	0.20151721
90	0x3e50a687	0.20376025
91	0x3e520ee2	0.2051349
92	0x3e51f502	0.2050362
93	0x3e50635c	0.20350403
94	0x3e52d69b	0.20589678
95	0x3e504235	0.20337756
96	0x3e50b585	0.20381744
97	0x3e4f8cc1	0.20268537
98	0x3e523bbd	0.20530601
99	0x3e4f12ec	0.20222062

gcn_layer3.batchnorm.running_var f4 [100]
0	0x3ef33321	0.47499946
1	0x3ef6c5f0	0.4819789
2	0x3ef924c3	0.4866086
3	0x3efb5a07	0.49092123
4	0x3efdb403	0.495514
5	0x3efc5411	0.49282888
6	0x3ef66126	0.48120993
7	0x3effca1b	0.49958882
8	0x3efbcfed	0.49182072
9	0x3efe2c72	0.49643284
10	0x3efd76c3	0.4950467
11	0x3efcdc5a	0.49386865
12	0x3efd7a6b	0.4950746
13	0x3f023b3f	0.5087165
14	0x3ef9318c	0.48670614
15	0x3f00d81e	0.5032977
16	0x3efcfda4	0.49412262
17	0x3ef9d99b	0.48798832
18	0x3effb46e	0.49942344
19	0x3ef6ad83	0.48179254
20	0x3ef5cbbb	0.48006997
21	0x3ef53b2f	0.47896716
22	0x3f0037ce	0.5008515
23	0x3efa30d2	0.48865372
24	0x3efc9b5d	0.49337283
25	0x3ef45fb3	0.47729263
26	0x3ef91331	0.48647454
27	0x3ef85ab5	0.48506704
28	0x3efbb4f4	0.49161494
29	0x3f004c3f	0.5011634
30	0x3ef81c6b	0.4845918
31	0x3ef9d086	0.48791903
32	0x3f0041ef	0.50100607
33	0x3efbad7d	0.491558
34	0x3f003326	0.50078046
35	0x3f00190d	0.50038224
36	0x3ef666cd	0.48125306
37	0x3f005b6a	0.50139487
38	0x3ef6c727	0.48198816
39	0x3ef2042f	0.47268817
40	0x3efa388f	0.48871276
41	0x3efce1e4	0.4939109
42	0x3ef69b37	0.48165295
43	0x3ef95c00	0.48703003
44	0x3efdb866	0.49554747
45	0x3f0030d6	0.5007452
46	0x3ef3b85e	0.47601599
47	0x3f01137d	0.5042036
48	0x3efc60bb	0.4929255
49	0x3ef639c4	0.48090947
50	0x3f014934	0.50502324
51	0x3efbc990	0.49177217
52	0x3ef19a58	0.47188067
53	0x3f003a12	0.5008861
54	0x3ef64f03	0.48107156
55	0x3efc7a43	0.49312028
56	0x3f0046ea	0.50108206
57	0x3efd3bfa	0.4945982
58	0x3ef717b4	0.48260272
59	0x3efdca42	0.49568373
60	0x3efeba6b	0.497516
61	0x3ef83ae3	0.48482427
62	0x3efcd88c	0.49383962
63	0x3ef85939	0.4850557
64	0x3efccc85	0.49374786
65	0x3ef86c54	0.48520148
66	0x3ef875c8	0.4852736
67	0x3efc7dc7	0.4931471
68	0x3efad7e9	0.4899285
69	0x3ef99bfc	0.4875182
70	0x3f000e35	0.5002168
71	0x3ef7861c	0.48344505
72	0x3f00ffd1	0.50390345
73	0x3efbc52e	0.49173874
74	0x3f01315a	0.5046593
75	0x3ef4bdc0	0.47801018
76	0x3efd93e6	0.495269
77	0x3ef937e7	0.48675463
78	0x3ef8435c	0.4848889
79	0x3ef8fa89	0.48628643
80	0x3f005c2f	0.5014066
81	0x3ef559fc	0.47920215
82	0x3ef504db	0.47855267
83	0x3efad523	0.48990735
84	0x3f00569b	0.5013215
85	0x3efeaaac	0.49739587
86	0x3efc1341	0.4923344
87	0x3f00d9d9	0.5033241
88	0x3efbc0b5	0.4917046
89	0x3ef5f2fa	0.4803694
90	0x3efb30c2	0.49060637
91	0x3eff945a	0.4991787
92	0x3eff7389	0.49892834
93	0x3efa97a5	0.4894382
94	0x3f00d312	0.5032207
95	0x3efa7525	0.489175
96	0x3efb990a	0.49140197
97	0x3ef92e84	0.486683
98	0x3efe3858	0.49652362
99	0x3ef76326	0.48317832
