weights/te50st10lr0.0009b16bcafterbe.pt (torch, 34400 bytes, 26 tensors)

gcn_layer1.weight f4 [2, 16]
00000000: 1c60 843e 15e4 0c3e f08d 5b3e 5643 5ebe
00000010: 923e 1dbe 4626 81be a360 3bbe c3e0 31be
00000020: 9a05 bb3e 580f a13e 4aba 90be 9236 68be
00000030: 5814 853d 349e 4cbe 654f b53d 28e2 33be
00000040: 5a52 113d 85bc 103d 8739 8b3e 75c4 133d
00000050: 2802 29bd e82d 8d3d 7b89 d8bd d0a2 7fbe
00000060: f4d9 5abe 5958 8cbe d4bf 573e 1699 3abd
00000070: 9d5e b7bd dc9a 19be 1d45 c13c 0a0b 463e
0.25854576 0.13758881 0.21440864 -0.21705374 -0.153559 -0.25224513 -0.18298583 -0.17370896
0.3652771 0.3145702 -0.28267127 -0.22677067 0.06498021 -0.19982225 0.08853034 -0.1756674
0.035478927 0.035336036 0.27192327 0.036076028 -0.041261822 0.068935215 -0.10573097 -0.24964452
-0.21372205 -0.27411154 0.2106927 -0.04555615 -0.08953593 -0.1500048 0.023592526 0.19340149

gcn_layer1.bias f4 [16]
00000000: 37ef b5ba 263b 9e3c b052 9dbc be45 33be
00000010: dcbc 23bd 3fe8 fcbd 9eda 603e 7ad5 6ebe
00000020: d301 aa3e c03c 6e3d 9c6b b6bd da72 f63d
00000030: c035 39ba e296 f8bd 2805 f7bd d4fe 33be
-0.0013880496 0.019315314 -0.019204468 -0.17507073 -0.039975032 -0.12348985 0.21958396 -0.23323622
0.33204517 0.058163404 -0.089072436 0.12033625 -0.00070651993 -0.121381536 -0.1206153 -0.17577678

gcn_layer1.batchnorm.weight f4 [100]
00000000: 22c8 753f 6b0a 773f 39a8 823f 1084 903f
00000010: 39d6 8a3f 1be7 883f e9f0 8b3f cf8a 843f
00000020: 95b4 833f b086 813f 8782 8a3f 63f5 803f
00000030: d996 8e3f bda2 8f3f 642d 8e3f ede1 893f
00000040: 81c8 813f 05ab 853f caf1 803f 6ad1 7f3f
00000050: 3535 833f 0604 883f b4cc 7b3f 2397 823f
00000060: 3a91 823f 691f 903f 1e02 863f ba62 813f
00000070: 9f75 843f c9c0 7d3f e6bf 803f f902 803f
00000080: 8cef 8e3f 18a6 8c3f 3ce5 8b3f 975a 8e3f
00000090: c958 833f 3f23 823f ecbd 833f 8e85 833f
000000a0: c4ac 753f dbe6 8d3f 0232 8c3f 3822 8f3f
000000b0: 79a5 863f 39bc 873f b48a 843f 9533 873f
000000c0: 562b 813f 2005 7f3f a76c 853f 7eb6 893f
000000d0: 59fa 833f f0b4 7f3f d9c3 833f dea4 813f
000000e0: 3284 833f c4f1 803f 6ffa 813f c13c 823f
000000f0: 5f30 853f c8aa 853f 5ab2 843f bd52 863f
00000100: 9f3c 833f 625c 7f3f 9091 843f 794e 8c3f
00000110: 8058 8f3f d5ca 873f a7fc 7b3f d10f 863f
00000120: 19ff 873f c5a9 7d3f 1f35 783f 45ec 893f
00000130: d98e 8e3f 0585 8c3f 6fd9 8c3f b15b 833f
00000140: 4de3 823f d7aa 823f 3c31 863f 975e 8b3f
00000150: c420 903f ec2f 813f cbb9 823f 58f8 813f
00000160: 56ee 813f c7d3 7d3f 511a 823f a710 863f
00000170: 7e69 863f 9217 7f3f fbc0 803f 9d78 803f
00000180: 265d 873f df06 8a3f 746e 893f c81d 853f
0.96008503 0.9650027 1.0207587 1.1290302 1.0846626 1.0695528 1.0932895 1.0354861
1.0289484 1.0119228 1.0821084 1.0074886 1.1139785 1.1221539 1.1107602 1.0772072
1.0139314 1.0442816 1.0073788 0.99928916 1.0250612 1.0626228 0.9835923 1.0202373
1.020057 1.1259586 1.0469396 1.0108254 1.0348395 0.9912229 1.0058563 1.0000907
1.1166854 1.0988188 1.0929332 1.1121396 1.026147 1.0167006 1.0292335 1.0275133
0.95966744 1.1086076 1.0952761 1.1182318 1.0519248 1.0604316 1.0354829 1.0562617
1.009135 0.99617195 1.0423783 1.0758817 1.0310775 0.99885464 1.0294143 1.0128438
1.0274718 1.0073781 1.0154551 1.0174791 1.0405387 1.0442743 1.0366929 1.0494
1.0252875 0.9975034 1.0356922 1.0961448 1.1198883 1.0608774 0.9843239 1.0473577
1.0624725 0.9908717 0.96956056 1.0775229 1.1137344 1.0978094 1.1003855 1.0262357
1.0225617 1.0208386 1.0483775 1.0888242 1.1259999 1.009275 1.021295 1.0153913
1.0150859 0.9915127 1.0164281 1.0473832 1.0500944 0.9964534 1.0058893 1.0036808
1.0575302 1.0783347 1.0736833 1.0399714

gcn_layer1.batchnorm.bias f4 [100]
00000000: cf96 e9bc 8373 b2bc 6870 0abb 0608 7f3c
00000010: cead df3c 052e 563d 5136 b53c 1c60 a4bc
00000020: 7f3a 7fbc b81b 01bc 3b5e 5e3b e236 31bd
00000030: a6ec f43c e40f 223d a98c e73c 753b ac3c
00000040: 51f7 133c a362 b2bb 014a 823b 0f1c 3b3b
00000050: f6ce c33b af9d cb3c 934e ba3c f911 973c
00000060: 7d1f 81bd ba43 023d 1eeb 553d b4e7 7a3c
00000070: a7fe 013d 7da4 a6bb 26ce afba 1fff c8bc
00000080: 9085 313d 585e 5c3d 772f 003d b1b1 d63c
00000090: 4a9f 90bc f607 70bc 0fe2 abbc 8d16 483d
000000a0: 070a 21bd 8493 e13c 1e76 f23c a7c0 2e3d
000000b0: 8f30 7ebb 8dcf afbc 71e6 683c 0204 93ba
000000c0: b8d6 4d3d 69dd c73c 32da 763d 81bd 383d
000000d0: f1e2 bc3c 2795 583b 7ced 6c3b 8c32 3d3c
000000e0: ec50 e13b a3e4 b83c 21d0 a3bc 8ee0 4ebc
000000f0: 9e77 f73b 17a7 85bc 23b6 8abb 88c4 e9bb
00000100: 2d50 98bc 7fdb 9dbc 560a e73c 5555 293d
00000110: 2af5 893d bc4a 503d f597 fc3b 8e42 2f3c
00000120: f6b6 ff3c 7af5 dfbc a2bc 0abc ed10 853c
00000130: 0e80 283d d3c9 383d 4cfb 8dbb 3d51 8fbc
00000140: 7d98 72bc 9091 69ba 3fd0 e63c 033e 5e3c
00000150: cf1a 873d 2737 cf3b 215b eb39 a5f2 3a3b
00000160: fd5b 36bb dc63 c0bc b52c 17ba b8db beba
00000170: 8bfe 753b bdcc 243c 6ec9 27bc 9adb b43b
00000180: 40f0 c53c ede7 173d 498f 3b3d 2c7e c3bc
-0.028514294 -0.021783596 -0.0021124128 0.015565878 0.027304556 0.05228998 0.022120627 -0.02006536
-0.015577911 -0.007880144 0.0033930677 -0.04326523 0.029897999 0.039565936 0.028265314 0.021024445
0.009031133 -0.0054438873 0.003976107 0.002855066 0.0059755994 0.024855463 0.022742545 0.018441187
-0.06304834 0.03180287 0.05222618 0.015314031 0.031736996 -0.0050855265 -0.0013412877 -0.024535714
0.043340266 0.05380091 0.031295266 0.026207777 -0.01765408 -0.014650336 -0.020981817 0.04884963
-0.039316203 0.027536161 0.029597338 0.042664196 -0.0038786267 -0.021461273 0.014215098 -0.0011216404
0.0502536 0.024397569 0.06026668 0.0451026 0.023057433 0.0033047886 0.0036152294 0.011547696
0.0068761017 0.02256996 -0.019996705 -0.01262678 0.0075521013 -0.016315026 -0.004233138 -0.007134024
-0.018592918 -0.019269703 0.02820317 0.041341145 0.067362145 0.050852522 0.0077085444 0.01069702
0.031215172 -0.027338732 -0.008467825 0.016243422 0.041137747 0.04511435 -0.0043329354 -0.017494792
-0.014806864 -0.0008909935 0.028175471 0.013564589 0.0659691 0.0063237133 0.0004489059 0.0028525975
-0.0027825825 -0.023485117 -0.0005766855 -0.0014561331 0.0037535753 0.010058579 -0.010240896 0.0055193426
0.024162412 0.037086416 0.045790944 -0.023863874

gcn_layer1.batchnorm.running_mean f4 [100]
00000000: c128 433e 3b86 433e 6942 433e 5f78 433e
00000010: b66f 433e 8f4b 433e bb74 433e ecd1 433e
00000020: 1d67 433e fb59 433e 4169 433e bb90 433e
00000030: b561 433e 6c82 433e e94f 433e 2b5f 433e
00000040: c65b 433e c4de 433e 9281 433e c290 433e
00000050: eb89 433e a0b5 433e 598c 433e 39a9 433e
00000060: 50fb 433e 2043 443e 840c 443e 7827 443e
00000070: 658d 443e 3dd7 443e 4538 443e 01d5 443e
00000080: e35f 443e 0e69 443e ae57 443e 45c7 443e
00000090: f155 443e 7690 443e 514d 443e eb5a 443e
000000a0: 5173 443e d20f 443e 9df8 433e 9ffc 433e
000000b0: 7827 443e dd7e 443e 8756 443e 42bb 443e
000000c0: bd8c 443e 726f 443e bf45 443e d297 443e
000000d0: ffbb 443e 1883 443e 0a68 443e 64b4 443e
000000e0: 1399 443e 3690 443e e161 443e 78a4 443e
000000f0: 73cf 443e 7ce8 443e a2f4 443e 1fbe 443e
00000100: 206e 453e 5903 453e fd5b 453e 4f16 453e
00000110: ce4d 453e fca0 443e 7fca 443e 1dc4 443e
00000120: 8eae 443e 3495 443e f268 443e 58a3 443e
00000130: 4a8d 443e 3961 443e 18a8 443e dd26 443e
00000140: a4cd 443e 0c46 443e aa8a 443e 9617 453e
00000150: 89eb 443e cb21 453e cead 443e f115 453e
00000160: 5e03 453e 23d7 443e 8a01 453e f806 453e
00000170: e609 453e a744 453e 4b99 443e c226 453e
00000180: 67c7 443e 8a20 453e 96ea 443e 0f3d 453e
0.19058515 0.19094174 0.19068302 0.19088887 0.19085583 0.19071792 0.19087498 0.19123048
0.19082303 0.19077294 0.1908312 0.19098179 0.19080241 0.19092721 0.19073452 0.19079272
0.19077978 0.19127947 0.19092396 0.1909819 0.1909558 0.19112253 0.19096507 0.19107522
0.19138837 0.19166231 0.191454 0.19155681 0.19194563 0.19222732 0.1916209 0.1922188
0.19177203 0.191807 0.19174072 0.1921664 0.19173409 0.19195732 0.19170119 0.19175307
0.19184615 0.1914666 0.19137807 0.19139336 0.19155681 0.1918902 0.19173633 0.19212058
0.19194312 0.19183138 0.19167231 0.1919854 0.1921234 0.19190633 0.19180313 0.19209439
0.19199018 0.19195637 0.19177963 0.19203365 0.1921976 0.19229311 0.19233945 0.1921315
0.1928029 0.19239558 0.19273372 0.19246791 0.19267961 0.19202036 0.19217871 0.19215436
0.19207212 0.19197541 0.19180658 0.19202936 0.19194523 0.19177713 0.19204748 0.1915545
0.1921907 0.19167346 0.19193521 0.19247279 0.19230475 0.19251172 0.19206926 0.19246651
0.19239566 0.19222693 0.19238868 0.1924094 0.19242057 0.1926447 0.19199102 0.19253066
0.19216691 0.19250694 0.19230112 0.19261573

gcn_layer1.batchnorm.running_var f4 [100]
00000000: 0639 013d 91f1 033d ab44 023d 0e32 033d
00000010: 42a8 023d 51a9 003d b5f4 023d 2866 033d
00000020: 8a3e 033d ada6 023d 3fc7 033d dd8e 023d
00000030: 042b 023d 517b 013d bf6e 033d 7351 003d
00000040: 0a0f 023d 77d1 043d 392b 013d 7fa7 013d
00000050: de4c 033d 837a 023d 616d 013d bb25 023d
00000060: 74bd 023d 98b5 003d 6c9e 013d a240 033d
00000070: 588d 023d 2213 023d b68d 013d bf20 013d
00000080: 4ca8 023d 6db5 023d 045c 023d acfc 013d
00000090: f534 033d a761 013d fbc1 023d d1d1 023d
000000a0: 4f61 003d 7884 023d 7fd8 013d 8dc2 013d
000000b0: 837a 013d 50bf 023d 3397 023d 0d81 033d
000000c0: 25da 013d e925 023d b42e 013d 8646 023d
000000d0: 8876 033d 7ba4 023d 0404 033d 798d 013d
000000e0: af5e 033d 4788 023d baac 023d 3f2b 023d
000000f0: 4ed6 023d 5d9d 023d 4a41 033d a094 033d
00000100: 4f49 033d 5e5a 023d 4906 013d d072 033d
00000110: 8931 033d ea1c 033d b4ae 023d 39eb 013d
00000120: 94fc 033d b79a 013d 4aa7 013d f780 033d
00000130: 2b33 053d e326 033d a926 033d f2a3 033d
00000140: 8162 043d 5fc8 033d 7aa9 013d ca0c 033d
00000150: cd40 023d 869d 043d 5e1f 043d ca7b 023d
00000160: fec9 033d d783 023d 8f27 043d d99e 033d
00000170: ce0c 033d 3c88 023d b05f 013d 232f 023d
00000180: 2539 043d e5fd 023d 65ce 023d bdb6 023d
0.031548522 0.032212798 0.031803768 0.032030158 0.031898744 0.031411473 0.031971652 0.032079846
0.032042064 0.031897236 0.032172438 0.031874526 0.031779304 0.031611744 0.032088038 0.031327676
0.031752624 0.032426324 0.03153536 0.031653877 0.03205573 0.031855118 0.031598452 0.031774264
0.031918958 0.03142318 0.031645223 0.03204406 0.031873077 0.031756528 0.031629287 0.03152537
0.03189878 0.031911302 0.031826034 0.031735107 0.032032926 0.03158727 0.031923275 0.031938378
0.0313428 0.031864613 0.031700607 0.03167968 0.031610977 0.03192073 0.031882476 0.032105494
0.03170218 0.031774435 0.03153868 0.031805538 0.032095462 0.031895142 0.03198625 0.03162906
0.03207272 0.031868245 0.031903006 0.031779524 0.031942658 0.031888355 0.032044686 0.03212416
0.032052334 0.031824462 0.031500135 0.032091916 0.032029662 0.032009996 0.03190489 0.031718466
0.0322233 0.03164169 0.03165368 0.032105412 0.0325195 0.032019507 0.03201929 0.032138772
0.032320503 0.03217351 0.031655766 0.03199462 0.03180008 0.03237679 0.032256477 0.031856336
0.032175057 0.031864014 0.03226429 0.03213391 0.031994633 0.031868204 0.031585395 0.031783234
0.03228106 0.031980414 0.031935114 0.031912554

gcn_layer2.weight f4 [16, 32]
00000000: d0ee 9f3d f0d2 8abe af3e fd3c 9d80 8c3c
00000010: bd45 483e fb8d 29be f473 313d 0d82 d2bd
00000020: f03b 273e e546 5d3c 10ec 71be a4bf a5bd
00000030: 544e 143e 446c 2b3e a13b 47be 6bb6 af3e
00000040: 6a6d 7d3d 9b80 02be bd5b 803c 21dd 84be
00000050: 1ee3 7ebe e372 0fbd 3170 1bbd 8e2c 93bc
00000060: 388d 193d 1ecb 083d 8fd7 093e 73a9 a8bb
00000070: b67e 873d a0b5 00bb a798 08be 71b0 933b
00000080: 2f44 683c b772 44be 358b b63b 9883 f1bd
00000090: 6aef d33c 8954 40be 575f 4c3e f87f debd
000000a0: 3d34 f2bd eaa4 5f3d ca82 a1bc a755 b6bd
000000b0: ffc4 3bbd 9b41 c63b 9242 08be 391c 30be
000000c0: f5f1 a03d 8778 f8bd 2a13 b13d 05d7 86bc
000000d0: e4dc 2dbe 679a 87be e5d9 1cbe 5778 3fbe
000000e0: 1132 68be 92c5 1ebd bddb b1bd 26ae 9abd
000000f0: fe36 c73c afdb 50bd 00f6 2ebe 5af7 023c
00000100: d03b d13c bd17 b33d 42de 24be f495 08be
00000110: 96f7 2a3e c896 41be 50e6 343d 3c80 69bd
00000120: 0df9 af3c 3e30 09be d5d1 82be e70f 1c3c
00000130: 3d60 4b3d fde8 23be a7eb 55be efcb 173e
00000140: e34d 8d3d 7f7a 8cbe 65b7 0e3c 6348 d93d
00000150: 2d04 4c3e 1b78 9cbc 12f0 173e 35cf bb3d
00000160: cdcf 0a3e 3e31 3dbd cc81 97bd 34f9 e23d
00000170: 36ff 6fbd 705e 7dbd 53f3 763d bff6 e73b
00000180: 7eee 513d 8852 38bd 6539 21be 7c43 a7bd
00000190: 286a 50be be3b 223c a7fa 493e 8222 ba3b
000001a0: e135 303c c960 0dbe bb28 a3bd 180d 103e
000001b0: d8b3 163e 84dc cbbc 6800 1cbd a08e 40be
000001c0: 8349 2c3e cdeb ebbd 0704 f33d 5d96 263d
000001d0: 8749 acbc 6568 27be f4bb ebbd 3e16 393e
000001e0: 0709 ff3d 2eab 483b 77f6 0fbe c5c2 00be
000001f0: 59ec cb3d e919 c9bd 98a5 87bd 6618 463c
00000200: c4af 2dbe 26f3 a5bc ad8c 113d d88d 38be
00000210: 2be2 083e 0d86 793c 9396 4b3e 39f6 a73d
00000220: 28b3 76bd 0aa2 fe3d 90d5 52be 32f8 ec3d
00000230: 31b6 903d 9688 f33d a6e7 b63d 2ab3 693d
00000240: a876 69bd d622 8bbd 0185 523d b3b5 04bd
00000250: 6171 9b3d af4f 89be 099e 2c3e cf56 143d
00000260: a343 f13c 7887 503d 3de7 0a3e 2b27 03be
00000270: a0b6 6dbd 95bc 3d3d b07b 78bd 9378 543c
00000280: cdc9 9dbc edcf bdbc e436 033e 1d71 f83d
00000290: d747 cc3d 8c7d a13d 7fd9 403e 9506 95bd
000002a0: 5406 273d 5179 18bd 824a a33d 0fd5 85bd
000002b0: e0fb 813c 2a7b debb ac1b 2dbd baea 4d3d
000002c0: 2499 42bd 14cf 91bd 04c9 ff3d d470 9fbd
000002d0: a422 173e cc7b ecbd 11df be3c 33df 203e
000002e0: 3cd3 17be 52b6 77bd db62 57bd ce8b dbbb
000002f0: ed99 73bd 83d4 9e3d ac57 1c3d 0f1e ba3c
00000300: e6d5 eabc ced1 5c3e 9d96 43bd b098 7d3d
00000310: c972 26be 71c1 1e3e 2668 423e 91de f1bd
00000320: 159d 2d3c e7c6 223e a486 2dbe d7e6 273e
00000330: 7bb1 1c3e 0939 b73d 18bc 16be 2553 93bc
00000340: 18cd f0bd 5163 c2bd ac74 293e af13 02be
00000350: 6829 133c b04d 433c fb19 89bc 8f16 9bbd
00000360: 404c fbbd 540d a63d 1ef7 b0bd 17c6 b2bd
00000370: 2b18 ac3c e61c 2abe c386 3dbd 5824 22bd
00000380: 8a9f cd3d 6798 30bd d36d 193c 0b4e a93d
00000390: a267 35be f87a 06bd a8b2 c03d be17 2a3e
000003a0: 05f8 0e3e dee7 aa3d d14a 5abe 43ec 8f3d
000003b0: d3c1 f53d 1d7d 76bd e019 213e c2ac 0f3e
000003c0: 5a65 eebd 622b ffbd 3536 3c3d 29bc e1bd
000003d0: 20b1 13be 44b2 6ebe 3df0 aabd 2214 693d
000003e0: 5033 63bb a74a de3d c26f 2a3e 659d 083e
000003f0: cd79 0c3e 5416 c23c e20b 35bd 001f d23d
0.07809222 -0.27114058 0.030913679 0.017151171 0.19557853 -0.16558068 0.043323472 -0.102787115
0.16331458 0.013505672 -0.23625207 -0.08093193 0.14483005 0.16740519 -0.1945634 0.3431886
0.061871924 -0.12744372 0.015668744 -0.25949958 -0.24891326 -0.035021674 -0.03794879 -0.017965581
0.037488192 0.033396833 0.13461135 -0.005147153 0.06615965 -0.0019639507 -0.13339482 0.0045071174
0.0141764125 -0.19184385 0.005570794 -0.11792678 0.025870997 -0.18782248 0.19958244 -0.10864252
-0.1182637 0.054600634 -0.019715685 -0.08903056 -0.045842167 0.0060503013 -0.13306645 -0.17198266
0.0785865 -0.12132364 0.086462334 -0.016459951 -0.16978794 -0.26484987 -0.15317495 -0.1869825
-0.22675349 -0.038762636 -0.0868449 -0.075527474 0.024318215 -0.050990757 -0.17086029 0.0079935435
0.025541216 0.08744762 -0.1610041 -0.13338453 0.16696009 -0.18905175 0.044164956 -0.05700706
0.021481061 -0.13397309 -0.25550714 0.009525276 0.049652327 -0.16006847 -0.20890675 0.14823888
0.06899621 -0.27437207 0.008710717 0.1060951 0.19923468 -0.01910024 0.14837673 0.09170381
0.13555832 -0.04618954 -0.07397804 0.11082688 -0.058592997 -0.06185764 0.060290646 0.007078975
0.051252834 -0.045000583 -0.1574455 -0.081671685 -0.20352995 0.009901939 0.19724523 0.005680383
0.010755033 -0.13806452 -0.07966753 0.14067495 0.14717042 -0.024885423 -0.038086325 -0.18804407
0.16824917 -0.11519585 0.118660025 0.04067074 -0.021031154 -0.16348417 -0.115104586 0.18074891
0.12452894 0.003061961 -0.14058863 -0.12574299 0.09957189 -0.09819395 -0.066233814 0.012090778
-0.1696158 -0.020257544 0.03553455 -0.18022859 0.13367526 0.015229714 0.19881658 0.0820126
-0.06022945 0.1243325 -0.2058928 0.11570777 0.07066 0.11891286 0.08930902 0.05705563
-0.056997925 -0.06793754 0.051396374 -0.032399844 0.07589985 -0.26818606 0.1685716 0.0362156
0.029451197 0.050910443 0.13564773 -0.1280791 -0.058035493 0.046322424 -0.060664833 0.0129682
-0.019261265 -0.023170436 0.12813908 0.1213095 0.0997464 0.07885274 0.18832968 -0.07276646
0.04077752 -0.03722507 0.079731956 -0.06534778 0.015867174 -0.0067895846 -0.042262718 0.05027268
-0.047509328 -0.07119575 0.124895126 -0.07785192 0.14759308 -0.1154705 0.023299726 0.15710144
-0.14826673 -0.06047661 -0.05258451 -0.0067000156 -0.059472967 0.07755377 0.038169548 0.022719411
-0.028666448 0.21564409 -0.047751058 0.061913192 -0.16254725 0.1550348 0.18985042 -0.11810029
0.010596533 0.15896188 -0.16945893 0.16396652 0.15302078 0.089464255 -0.1472019 -0.017983982
-0.117578685 -0.09491599 0.16548413 -0.12702821 0.00898204 0.011920378 -0.016736021 -0.07572662
-0.12270403 0.08108011 -0.08640884 -0.08729189 0.021007618 -0.16612586 -0.046271097 -0.03958544
0.10040195 -0.043114092 0.009364563 0.08266839 -0.17715314 -0.032832116 0.09409076 0.1661062
0.139618 0.083450064 -0.21317603 0.07027485 0.1199986 -0.06017791 0.15732527 0.14030746
-0.11640425 -0.124594465 0.045950133 -0.11022217 -0.14423037 -0.2331019 -0.08346603 0.056903966
-0.0034668036 0.108540826 0.16644195 0.13341291 0.13718338 0.023692288 -0.044200785 0.10259819

gcn_layer2.bias f4 [32]
00000000: f923 6fbd a42e 33be cc13 f4bd c6de efbd
00000010: 142c 583e 47e3 87bd dfa3 8a3b 5103 533d
00000020: 18c2 3dbd 124b d9bc 8540 6abd 8fd1 8cbd
00000030: 1767 c4bd a65f 293e 1bf9 02be ac42 923d
00000040: 7b84 2ebe 6d20 3d3e 57b9 7dbd 2c00 4f3e
00000050: d4b1 92ba 4f28 833e ee01 32bd 64d8 2a3d
00000060: 94a1 e03d 304f 0cbe 0306 0cbe 0871 59be
00000070: caa5 173e e441 fcbd b5ab 223e 8532 b4bc
-0.058383916 -0.1749826 -0.119178385 -0.117124125 0.21110564 -0.066351466 0.0042309607 0.051516835
-0.04632768 -0.026525054 -0.057190437 -0.06875908 -0.09589975 0.16540393 -0.12790339 0.07141623
-0.17042725 0.184694 -0.061944332 0.2021491 -0.0011191913 0.2561669 -0.04345887 0.041710272
0.109683186 -0.13702083 -0.13674168 -0.21234524 0.14809337 -0.12317255 0.15885814 -0.021996746

gcn_layer2.batchnorm.weight f4 [100]
00000000: ca3a 843f 19c4 8d3f 2a63 8c3f 9b8d 9a3f
00000010: 6f8e 953f ebb8 953f 0111 903f 45e1 833f
00000020: ba97 823f c5d5 7f3f 4cc8 823f 5388 843f
00000030: 8dc8 9e3f 0093 963f ab2a 933f 6c46 8c3f
00000040: 3123 7c3f 4ba2 823f ce0f 823f 4702 813f
00000050: aa14 823f 294c 893f 8a72 873f 3455 893f
00000060: 31ff 8f3f d380 943f e8ba 8b3f c6fc 803f
00000070: ae08 853f a8b4 783f 0e2b 833f 5c7a 823f
00000080: a197 983f 4705 983f 6435 973f a38e 913f
00000090: 3bf1 843f fd73 833f d869 883f 394d 813f
000000a0: 60f2 7d3f 1717 953f 1be2 943f 5442 993f
000000b0: 01e5 863f 8a20 8a3f 1fd5 7f3f 7689 823f
000000c0: 8117 803f 07b5 813f fa74 873f 569c 8b3f
000000d0: 9eb2 853f 8054 803f 8892 803f 570a 803f
000000e0: 5220 813f 9132 823f 1c38 863f 3e51 853f
000000f0: 615e 833f 8512 853f 5eaf 7c3f 4373 803f
00000100: 154c 803f 8c92 7f3f c4c1 893f 9ef2 903f
00000110: d899 923f 46cf 863f 29c9 713f b71e 883f
00000120: 9eae 8b3f f36d 833f 7b57 813f c585 8d3f
00000130: a2fc 8f3f 2602 8f3f 1216 883f 04de 843f
00000140: c0be 833f 2582 813f 3d58 8c3f 8deb 8e3f
00000150: 3171 8f3f 5098 7b3f d377 803f cc72 7c3f
00000160: 7764 7f3f 1165 813f a4d9 7e3f 9f09 883f
00000170: d3c1 863f bd89 833f e3bb 8a3f 4e5d 843f
00000180: 92ed 8c3f 420d 953f 24af 933f 3301 833f
1.0330441 1.1075469 1.0967762 1.2074465 1.1684092 1.1697057 1.1255189 1.0303122
1.0202553 0.9993556 1.0217376 1.0354103 1.2404953 1.1763611 1.1497396 1.0958991
0.984912 1.0205778 1.0161073 1.007882 1.0162556 1.0726367 1.058183 1.0729127
1.1249753 1.1601814 1.0916414 1.007714 1.0393274 0.9715066 1.0247514 1.0193591
1.1921273 1.187661 1.1813169 1.1371654 1.0386118 1.0269772 1.0657301 1.0101691
0.9919796 1.1647671 1.1631502 1.1973367 1.0538636 1.079118 0.9993457 1.01982
1.0007173 1.013337 1.0582573 1.0907085 1.0445135 1.0025787 1.0044718 1.0003155
1.0087988 1.0171682 1.0485873 1.0415418 1.0263177 1.0396277 0.9870509 1.0035175
1.0023218 0.9983299 1.0762258 1.1324041 1.1453199 1.0532005 0.9444757 1.0634373
1.0912664 1.0267929 1.0104822 1.1056448 1.1248972 1.1172531 1.0631735 1.0380254
1.0292587 1.0117842 1.0964428 1.1165634 1.1206418 0.98279285 1.0036567 0.98612666
0.9976267 1.0108968 0.99550843 1.0627936 1.05279 1.0276409 1.0838588 1.0340974
1.1010001 1.1644671 1.1537824 1.0234741

gcn_layer2.batchnorm.bias f4 [100]
00000000: 9955 04bd 0207 26bd 5cb9 5abd c24a babd
00000010: f6b9 93bc 8b88 f7bc 5719 aabb 029a e23c
00000020: ca70 943b 4e39 36bb a65a 123d 8a7e d0bc
00000030: 0773 7cbd c487 acbd 72fa 70bd 6e0f b2bd
00000040: ae0d b43c 776b 993c 41bf 513b 9d13 0e3c
00000050: 9070 1c3c e808 963b 13a2 f0bc 8381 33bb
00000060: c28b 1ebd f186 c93c 8b9c 97bc 2e2f 503b
00000070: 8b4b 723c 65cb d73c 16af 6dbc 828d c7ba
00000080: ae7d 33bd 27c3 46bd a6ef 4fbd 1c36 23bd
00000090: ed14 2e3c 115e 113a 16ee 1bbb 25bd 4c3c
000000a0: b911 56bc 4ef1 fcbc c11f da3a 1f01 a7bc
000000b0: d29c e03c 2f2a 31bc eb49 913c fb19 283d
000000c0: a373 1d3c 28c3 03bc 272d 933c 02bc c93c
000000d0: 7a09 973c 3d5c cc3b 5910 853c 194a 663c
000000e0: 0cd2 7f3c 7e70 453c fe60 5e3b 6a42 a93c
000000f0: 6b94 103d ca3a 9a3a c48e ab3c f8e9 de3c
00000100: 8651 403d 9c1b 633a b97f 6f3c f109 c1bc
00000110: 4846 0a3c 0729 543d 18dd df3c 4a22 473d
00000120: d769 853d 3129 013c a017 85bc a12d 933c
00000130: f0c4 973c 3f29 2f3d 7b4a 463d 4d49 963c
00000140: 1ce1 843c c1cb c53b 07de ddbb 569d 9b3c
00000150: 322d fd3a 2b4e 053d 39f7 f23c 2b2e 033d
00000160: 0cb3 113c 32d4 0a3c 317a 913c 7039 fe3c
00000170: 536a 153d 6a63 cc3c ad8a 79bc bce6 c5ba
00000180: ad8d 33bc 50df b9bb ac76 893b 796f 903d
-0.032308195 -0.040534027 -0.05339943 -0.0909629 -0.018033009 -0.030216476 -0.005191009 0.027661327
0.004530047 -0.0027805152 0.03573098 -0.025450964 -0.061633136 -0.08424333 -0.058832593 -0.08694349
0.02197918 0.018728001 0.0032004865 0.008671668 0.009548321 0.0045786984 -0.029374158 -0.0027390427
-0.038707502 0.024600478 -0.018507263 0.0031766403 0.014788519 0.026342103 -0.014507076 -0.0015224668
-0.04382103 -0.048525956 -0.050765656 -0.039846525 0.010625106 0.0005545328 -0.0023793033 0.012496267
-0.013065749 -0.030876782 0.0016641543 -0.020386277 0.027418528 -0.01081328 0.017735442 0.041040402
0.0096100895 -0.008042134 0.017965866 0.024625782 0.018437136 0.0062365816 0.016243147 0.014055752
0.015614044 0.012050746 0.0033932324 0.020661552 0.035297792 0.0011766788 0.0209421 0.027211174
0.046952747 0.0008663477 0.014617854 -0.02356431 0.008439608 0.05179694 0.027327105 0.048616685
0.06514328 0.007883356 -0.016246617 0.017966093 0.018526524 0.042763945 0.048410874 0.0183455
0.016220622 0.0060362522 -0.0067708525 0.018995922 0.0019315837 0.03254525 0.0296589 0.03202645
0.008892786 0.008473443 0.01775846 0.031033248 0.03647835 0.024949748 -0.015230817 -0.0015098671
-0.010959071 -0.005672373 0.004195055 0.07052512

gcn_layer2.batchnorm.running_mean f4 [100]
00000000: 1118 453e 05e9 453e 549e 453e 42d6 443e
00000010: 0233 443e 4e68 423e df5e 443e bf50 423e
00000020: 84ee 443e bcf0 443e a152 453e b457 433e
00000030: 1951 443e 2c3d 423e 0f7b 463e a1a8 423e
00000040: a1b5 443e 61a0 443e 95cf 423e 2898 423e
00000050: 4965 453e 12bf 433e c00e 443e b0a2 443e
00000060: 0fcb 443e e21a 413e 42ad 443e 8dc6 463e
00000070: aacb 433e ba9e 413e 7566 463e 5a10 413e
00000080: 49d4 463e 2ecf 453e b938 453e 9893 403e
00000090: 9348 453e 1c08 413e 6ed8 433e 72cd 433e
000000a0: 5588 3f3e 7161 443e 6138 453e 28f8 443e
000000b0: 0195 433e 2325 433e e193 443e 616f 433e
000000c0: 5d2e 433e 655f 443e 9c53 443e c4c9 433e
000000d0: e42a 443e 74ae 443e 2a99 453e 0082 413e
000000e0: c329 453e 2122 443e eefe 453e 89e0 433e
000000f0: fd84 433e 283f 433e afd2 433e 4507 463e
00000100: d304 413e 612f 443e c923 403e 764d 453e
00000110: 8fb3 423e 0267 473e 2576 443e 0921 433e
00000120: 6f84 453e 0ace 423e ff56 433e 85f7 423e
00000130: 9e54 463e a2bf 443e 39e3 423e a9f6 463e
00000140: 08a8 433e 4bf7 463e 47ea 423e 75fd 403e
00000150: bad8 413e 43ea 433e 4e3a 473e 661d 423e
00000160: c185 443e e03c 443e d736 453e 6dd0 433e
00000170: 3d13 433e 2e49 403e 6498 433e 6fb0 403e
00000180: 0d66 463e e210 433e 9cab 443e 5958 423e
0.19247462 0.19327171 0.19298679 0.19222358 0.19160083 0.18985102 0.19176815 0.18976115
0.19231611 0.19232458 0.19269802 0.19076425 0.19171561 0.18968648 0.1938288 0.1900964
0.19209911 0.19201805 0.19024499 0.19003356 0.19276918 0.19115856 0.19146252 0.19202685
0.19218086 0.18857911 0.19206718 0.19411679 0.1912066 0.18908206 0.19375022 0.18853894
0.19416918 0.19317314 0.19259919 0.18806303 0.19265966 0.1885075 0.1912553 0.1912134
0.1870435 0.19177796 0.19259788 0.19235289 0.19099809 0.19057135 0.19197036 0.19085456
0.19060655 0.19177015 0.1917252 0.19119936 0.19156986 0.19207174 0.19296709 0.18897247
0.19254212 0.19153644 0.19335529 0.19128622 0.190937 0.19067061 0.19123338 0.1933871
0.18849497 0.19158699 0.18763651 0.1926783 0.19013809 0.19472888 0.19185694 0.1905557
0.192888 0.1902391 0.19076155 0.19039734 0.19368216 0.19213727 0.19031991 0.19430031
0.19107068 0.19430272 0.19034682 0.18846686 0.18930331 0.19132333 0.19455835 0.18956527
0.19191648 0.19163847 0.19259201 0.19122477 0.19050308 0.18777916 0.19101101 0.18817304
0.19374867 0.19049409 0.19206089 0.18979014

gcn_layer2.batchnorm.running_var f4 [100]
00000000: e63b 583e da62 5a3e 5c51 593e 6e2a 5a3e
00000010: ace5 583e 302a 563e 34c8 593e 704d 573e
00000020: 51ca 593e 131e 5a3e 316c 5a3e cd7d 583e
00000030: 0f74 5a3e 606e 573e 4c44 5c3e 038f 573e
00000040: 4974 593e ac2f 5a3e 6a9a 573e fc09 573e
00000050: c075 5b3e 4d35 593e aad6 5a3e 64e0 593e
00000060: 7c29 5b3e d5b9 553e 481c 5a3e 9e48 5d3e
00000070: 48b8 583e df8e 553e ce04 5b3e 2dd5 533e
00000080: 389e 5c3e 3af3 5b3e 60f0 593e 5836 543e
00000090: b80c 5b3e 4e61 543e 3d17 573e ac66 593e
000000a0: e55c 533e 8cf1 593e 37c8 5b3e 28b5 5b3e
000000b0: 4f21 593e 549c 583e 6d4f 5a3e 9540 5a3e
000000c0: e0ee 583e 0d39 593e 2ddb 583e 2530 593e
000000d0: 0298 593e 750c 5a3e 45d6 5a3e 858d 543e
000000e0: a580 5b3e d3c4 593e b1cc 5c3e d46c 593e
000000f0: 21b4 573e 50c0 573e fff7 583e 9bb3 5a3e
00000100: 015c 553e 921d 593e b5c5 543e 317c 5b3e
00000110: abf7 573e ff9c 5e3e 35cc 583e d25c 563e
00000120: 0652 5c3e 9cb9 573e 3be9 583e b511 583e
00000130: 7e82 5d3e dbfa 5a3e 8dff 573e 34af 5c3e
00000140: 0375 593e f393 5c3e 168b 583e 74a4 553e
00000150: d1a8 563e 6cb6 5a3e 78d7 5e3e 56ac 563e
00000160: ba32 593e 523b 5a3e 3e51 5b3e 9601 5a3e
00000170: f071 583e 32c9 543e 23b6 583e 6b67 553e
00000180: efd6 5e3e c932 5a3e 5522 5b3e 3b0b 593e
0.211166 0.21326771 0.21222442 0.21305248 0.21181363 0.20914531 0.21267778 0.21025634
0.21268584 0.21300535 0.21330334 0.21141739 0.21333335 0.21038198 0.21510428 0.21050648
0.21235766 0.21307248 0.21054998 0.20999902 0.21431637 0.21211739 0.2137095 0.21277004
0.21402544 0.2087167 0.21299851 0.21609733 0.21164048 0.20855282 0.21388552 0.20686789
0.2154473 0.21479502 0.21283102 0.20723855 0.2139157 0.20740244 0.21004958 0.21230572
0.20640905 0.21283549 0.21463095 0.21455824 0.21204112 0.21153384 0.21319361 0.21313699
0.21184874 0.2121317 0.21177359 0.21209772 0.21249393 0.21293814 0.213708 0.2075711
0.21435793 0.21266489 0.21562459 0.21232921 0.21064807 0.21069455 0.21188353 0.21357577
0.20835878 0.21202686 0.20778544 0.21434094 0.21090572 0.21739577 0.21171649 0.20933846
0.21515664 0.21066898 0.2118272 0.21100505 0.2163181 0.21384756 0.21093579 0.2155121
0.21236043 0.21540813 0.21146807 0.20863515 0.20962836 0.21358651 0.21761882 0.20964178
0.21210757 0.21311691 0.2141771 0.21289667 0.21137214 0.20779875 0.2116323 0.20840232
0.21761678 0.21308435 0.21399815 0.2119569

gcn_layer3.weight f4 [32, 10]
00000000: 95e5 cf3e 7435 673d 8108 cf3e 6b1d 79be
00000010: 40f9 ac3d f321 173e 4ab8 993d 973b 923d
00000020: 7a9f 9fbc db34 993e dfa8 b73e df3c 47be
00000030: 7a51 bebe 618b 93be 0f1c b43b 98dd 6dbe
00000040: f0e9 6bbe 43a1 a0be d12f dabd 7668 3b3e
00000050: f421 d4bd 37e7 fcbc 7e95 933e 9fae 86be
00000060: cb48 e4bd 14d0 35be ce64 5d3d c4b5 ebbd
00000070: 63e8 39bc f650 97bd db86 9d3c b929 32be
00000080: debc 823e 54f8 283e e95c 613e 901c 413d
00000090: 681a 2abe e3fd 8cbe 43f2 a2be 1f6e 5c3c
000000a0: 17df 9a3e 8882 413d fce8 863e bfec c13e
000000b0: 99fe 953e 761d 41be 7370 893d 56ac 98be
000000c0: 96b3 ae3d 2a81 903e cdb6 ae3e 1d5e 113e
000000d0: 3d6a 423e 44e4 923d 1d4d afbe e3d5 8a3d
000000e0: 9aa2 25be ce0f 453e 1f19 3f3d a6fe cc3e
000000f0: 9e71 35be b75f 0f3d 51c8 cfbd 1b4a 0fbe
00000100: 9be7 343d e906 063e 939b 843d 97d1 66be
00000110: 553f babc f021 b2be dd19 8abe 9222 303e
00000120: a517 8a3d bbad f83d 0a6a 603e fd32 863e
00000130: aade 4cbe b5e6 623e 3414 6bbe 5b59 96bd
00000140: 4e09 cd3e 05e9 efbd bbdc ba3e 320a a5be
00000150: 02ac 663d f9d1 4d3e 6aba 1f3d def1 31bd
00000160: cc9b 25be 5848 6bbc 6a0b 86be d1f4 8d3e
00000170: c6a4 c83c 3881 843d f922 843e 21eb 943e
00000180: 2d00 983e ff00 8a3d f345 f6bd 0e41 963e
00000190: ed2a 53be 3939 b73e 4dd3 a2bd 744e 89be
000001a0: 294b acbe 315d 6bbe df87 a43e 22bf 793e
000001b0: 48cd b5be 05d3 ad3e 8e9e 6fbe a144 b93b
000001c0: 1121 c0bc 55cf 7a3e 5b6e 99be f984 36be
000001d0: 796b 173e 1fe5 4cbe 98bf 8dbe 562b 50be
000001e0: ad97 b43c b190 f53d 0197 593e 9b89 aabc
000001f0: b623 08be d081 9f3d 6df7 e03d 2087 d43b
00000200: 160b 553e 9d32 283e 0522 473e cc78 6a3e
00000210: 5051 1fbe a97e 4abe 0b20 833e 9752 d23c
00000220: 36e8 f73d 4162 80be a0de 4abd 0ced 0fbc
00000230: 04c2 ae3e 0c8b 653e 1c6b 06bd 668a 283d
00000240: cf87 60be 47dc 9c3e bdf8 7dbe 2c34 9ebd
00000250: 98fe a5be a296 c13e 9cd0 30be d734 89be
00000260: afc8 f83d 3275 763e 9af8 773e 7ba7 af3e
00000270: 972b 763e 4ee5 843e 0cbc 203e c1a6 a83e
00000280: d6bc 133e f00e fabd a239 013e 7b07 3a3e
00000290: 568f 88be ae55 c5bc aa37 b3be 19b9 5c3d
000002a0: 1920 7c3d 11bc 533e 8dfd 69be d80f 53bb
000002b0: d2c8 8fbe cd48 a3be cc01 a9be 6c80 d3bc
000002c0: 5db1 cc3c 5a52 c2bd 14dc cfbe 9f7c da3e
000002d0: 9a8d 19be bd13 413e b2b4 83be 90a5 863e
000002e0: 50a0 5c3e 5fb8 5f3e 18c9 3b3e 1fbe 46bd
000002f0: ce90 b9bd fec6 79bd 380c a13e 0910 503e
00000300: fbd1 c3be dbdc 383d 4fd0 d0bd cc38 70be
00000310: 0218 8c3d b34d 173e f5a2 253e 1622 99be
00000320: 4989 903e f122 343e 3b3b eabd c406 b93c
00000330: 18fc 9dbe 1706 333c 0f32 dfbd e325 36be
00000340: 6bdd 85be 72bf f5bd 894e 84be eb15 8b3e
00000350: 1976 f3bb c4f4 203e 08d5 a73e 3462 47bd
00000360: 3cfc debe 9ff4 d23e 9e83 d33e 7d1e afbe
00000370: 005e 33bc 8d18 83bd 7807 93be e8bd 2a3e
00000380: 1540 47be 078c 44be b780 25be 83fa 96be
00000390: 32ff be3e ba15 9b3e 359f 833e e708 4f3e
000003a0: e75e f5bd 9b94 873e 1ced e13d 2b70 973d
000003b0: 32d8 ce3d 9e5e 583e 45ff 5ebe 0d49 a5be
000003c0: 976d d53e 5aa9 83be e36a 9b3e c566 24be
000003d0: 8e9c 83bd a0ec adbd f0a2 993e ed68 563d
000003e0: 9afd 633e 2271 183e 2a4a 833e 721a 813e
000003f0: 309f 1ebd 885d dd3a 1feb 36be cedd 3a3c
0.40604845 0.05644746 0.40436175 -0.24327628 0.08445978 0.14759044 0.075058535 0.07140272
-0.019485224 0.29923138 0.35871026 -0.19456814 -0.37171537 -0.28817275 0.005496509 -0.23229063
-0.23038459 -0.31373033 -0.106536515 0.18301567 -0.103580385 -0.03087197 0.2882499 -0.263051
-0.11146697 -0.17755157 0.054051213 -0.115092784 -0.011346909 -0.07388489 0.019229343 -0.17398728
0.2553472 0.1650098 0.22008099 0.04714638 -0.16611636 -0.2753745 -0.31825456 0.013453989
0.3024833 0.047243625 0.26349628 0.37875935 0.29295805 -0.18858895 0.06710901 -0.29818982
0.08530347 0.28223544 0.3412384 0.14196058 0.18985839 0.071724445 -0.3423852 0.06779077
-0.16175309 0.1924431 0.046654817 0.4003803 -0.17719123 0.03500339 -0.10145629 -0.13993113
0.04416619 0.13088574 0.06474986 -0.2254089 -0.022735277 -0.34791517 -0.26972857 0.17200688
0.06742791 0.121425115 0.2191545 0.26210776 -0.20006815 0.2215832 -0.22956926 -0.07341262
0.4004616 -0.11714367 0.3649653 -0.3223434 0.056316383 0.2009963 0.038996138 -0.043443553
-0.16172713 -0.01436051 -0.26180583 0.27725843 0.024492633 0.06469959 0.25807932 0.2908564
0.29687634 0.06738471 -0.120250605 0.29346508 -0.20621844 0.35785845 -0.07950459 -0.26817667
-0.33651093 -0.22984768 0.3213491 0.24389318 -0.3550818 0.33950058 -0.23400328 0.005653933
-0.023453267 0.24493153 -0.29967007 -0.17824163 0.14787091 -0.20009278 -0.27685237 -0.20329031
0.02204498 0.11990488 0.2124901 -0.020817569 -0.13294873 0.07788432 0.10984693 0.0064858347
0.2080501 0.16425557 0.19446571 0.22897643 -0.15558362 -0.1977488 0.25610384 0.025674148
0.121048376 -0.25074962 -0.049528718 -0.008784544 0.34132397 0.22416323 -0.03281699 0.041147612
-0.21926807 0.30636808 -0.24801917 -0.07724795 -0.32420802 0.37810236 -0.17267078 -0.26798126
0.12147652 0.24068144 0.24215928 0.34307465 0.24040066 0.25956196 0.15696734 0.32939723
0.14427504 -0.1220988 0.12619641 0.18166916 -0.26671857 -0.024088707 -0.35003406 0.05388746
0.06155405 0.2067721 -0.22850628 -0.0032205489 -0.280829 -0.3189148 -0.33009183 -0.025818072
0.024986917 -0.094883636 -0.40597594 0.42673203 -0.14995423 0.18855186 -0.25723797 0.2629819
0.2154553 0.21847676 0.1833843 -0.048521157 -0.090608224 -0.06098079 0.31454635 0.20318617
-0.3824614 0.0451325 -0.10195982 -0.23459166 0.068405166 0.14775734 0.16175444 -0.29908818
0.2822974 0.17591454 -0.114370786 0.022586234 -0.30856395 0.010926745 -0.1089822 -0.1778789
-0.2614549 -0.11999406 -0.25841168 0.2716516 -0.00742985 0.1571837 0.32779717 -0.04867764
-0.43551815 0.41202256 0.41311353 -0.34202948 -0.010947704 -0.06401167 -0.28716636 0.16674006
-0.19458039 -0.19194041 -0.16162382 -0.29488 0.37304074 0.30290014 0.25707403 0.2021824
-0.11980992 0.26480564 0.11031553 0.07394441 0.1009983 0.21129844 -0.21777065 -0.32282296
0.41685173 -0.25715142 0.30354986 -0.16054828 -0.06426345 -0.08492398 0.30007124 0.05234616
0.2226471 0.14886907 0.2564252 0.2521549 -0.03872603 0.0016888836 -0.17863129 0.011405421

gcn_layer3.bias f4 [10]
00000000: e97a 383e 6168 89be f097 283e 9266 543e
00000010: b3b1 853e de8d ddbd 954c 093e 8f38 903e
00000020: b795 1d3e ae3c 8c3d
0.18015637 -0.26837447 0.1646421 0.20742252 0.26112136 -0.10818075 0.1340812 0.2816815
0.15389143 0.06847511

gcn_layer3.batchnorm.weight f4 [100]
00000000: f0a1 923f 884f 973f 5e52 8e3f 395b 9b3f
00000010: 520b 973f f77b 943f 4ef2 8b3f 04f6 803f
00000020: a101 813f 927b 803f 0dcf 803f 095c 843f
00000030: 3645 a03f 17be 983f 3c5e 943f f574 8c3f
00000040: 33a0 7a3f eab8 813f fbc8 803f f36c 813f
00000050: e1dd 7e3f cee9 883f bcfe 863f 6da3 883f
00000060: 9255 8d3f 546d 923f eaa2 8c3f 19f2 803f
00000070: 84b8 813f bee3 7a3f 86c9 813f 15e8 803f
00000080: 0c83 983f d8a6 973f 466d 983f 2267 923f
00000090: d177 823f d296 813f af82 853f 15d0 803f
000000a0: fdf0 7f3f d819 993f 530d 973f 7f1b 993f
000000b0: e50e 833f 9454 863f 361c 803f 6403 833f
000000c0: 5c65 7e3f 0b6b 823f 7d0d 893f e8d9 8b3f
000000d0: 5466 853f a9da 7f3f 938f 803f 167e 803f
000000e0: 1051 803f ad7d 823f 4a9d 853f 4442 843f
000000f0: 3ce4 843f ffdc 833f e33e 7b3f cb10 7e3f
00000100: 67cb 7d3f 61d7 7e3f 403f 8a3f 2633 913f
00000110: e316 923f 6fec 853f a842 713f efd4 863f
00000120: cd93 893f 1724 7f3f 813d 7f3f 4967 8a3f
00000130: bf24 8f3f e827 8e3f 2e2e 893f 08b4 853f
00000140: 2312 833f 7178 803f 4cf7 8e3f 138d 8f3f
00000150: c2a9 8f3f 250a 7d3f def9 7e3f b5c4 7c3f
00000160: d643 7e3f 4711 7e3f 89d1 7d3f a6e3 863f
00000170: a400 863f 3d77 833f 6890 893f 576f 863f
00000180: c71f 8f3f 8e77 943f 7b07 943f 324d 813f
1.1455669 1.1821146 1.1118886 1.2137214 1.180033 1.1600331 1.093332 1.0075078
1.0078622 1.0037711 1.0063187 1.0340587 1.2521122 1.1933011 1.1591258 1.0973192
0.97900695 1.0134556 1.0061334 1.0111374 0.9955731 1.0696352 1.0546489 1.0674874
1.1041739 1.1439614 1.0987217 1.0073882 1.0134435 0.98003757 1.0139625 1.0070826
1.1914992 1.1847792 1.1908348 1.1437724 1.0192815 1.0124152 1.0430506 1.0063502
0.99977094 1.1961012 1.1800941 1.1961516 1.023892 1.0494561 1.0008609 1.023541
0.9937341 1.0188917 1.0707241 1.0925875 1.0421853 0.99943024 1.0043815 1.0038478
1.0024738 1.0194603 1.0438626 1.0332723 1.0382152 1.0301818 0.9814283 0.99244374
0.9913849 0.9954739 1.0800552 1.1343734 1.1413234 1.0462779 0.94242334 1.0533732
1.074823 0.99664444 0.9970322 1.081277 1.1183089 1.1105928 1.0717218 1.0445566
1.023991 1.0036756 1.1169219 1.1214927 1.1223681 0.98843604 0.9960002 0.9873765
0.9932226 0.99245113 0.9914785 1.0538223 1.0468946 1.0270764 1.0747194 1.0502728
1.1181573 1.1598985 1.1564783 1.0101683

gcn_layer3.batchnorm.bias f4 [100]
00000000: ff75 ad3b 1a57 793c a870 f13c 8b89 a73d
00000010: deab 373c d994 303d a565 dc3c 31e3 813a
00000020: 53e9 f4bb 49eb 16bb 64fd dbbb c93e 143d
00000030: b735 943c 7bf1 2fbc ad54 273d 3679 1abb
00000040: 7f98 dfbc a945 353b ab00 c1bb b399 87ba
00000050: 00e3 b6bb 743a 573c 0403 1d3c d432 6a3a
00000060: 3501 893d 3264 a83d 69fb 363d 0e66 3b3b
00000070: b7e2 4cbc 4e9a 37bc cf8b 523c 3cda 0fbb
00000080: 630b 4c3d 8dc4 ca3c 11db ad3c 8d6d a73c
00000090: f5ca b43c b29a 60ba ee13 da3b 52e1 ddbc
000000a0: 02cf 753c 349a 193c 721e 6e3b 9b2d dfb9
000000b0: 5f0d 193c be65 da3c 1ce5 17bc 0820 b23b
000000c0: d31e 47bc 8c2a f93b 1559 273c 5082 853c
000000d0: 8ffb 7e3c fe3a 37bc 6e14 413b 4ed5 8abb
000000e0: 6d6d 19bc 005c 12bc a018 223d c335 883b
000000f0: 7323 9c3c b1f0 bb3c 9078 e5bc d181 a3bc
00000100: 4db0 01bc 1fd3 a6bc 2266 00bd 28f1 123c
00000110: 0f5e c53c 59b8 fd3b f9b7 f0bc 718e 7c3d
00000120: 8560 c43d bb56 d83b 5ec0 cd3c ecf7 393c
00000130: 7e43 e43c eaee cc3c 4ebd 9e3c 45e9 843c
00000140: 9014 103c 0c73 d33a b103 9fbc 2dac 7dbc
00000150: 7fad 5ebc f258 34bd 992e 67bc 8b2d 65bc
00000160: 2adb ccbc 6fd8 7cbc cd7e c3bc 41a0 583d
00000170: e53d 943c 4085 3cbb 7a54 bd3c 2c1f 53bc
00000180: 80c1 a1bc 151f 9f3d 5300 b53d e0cc ffbb
0.0052936072 0.015218521 0.029472664 0.08180531 0.01121041 0.043110702 0.026903937 0.0009909627
-0.0074741035 -0.0023028424 -0.006713556 0.03619269 0.01809202 -0.010738726 0.040852237 -0.0023570783
-0.027294395 0.002765993 -0.005889972 -0.0010345489 -0.0055812597 0.013136495 0.0095832385 0.00089339656
0.06689683 0.08222236 0.044673357 0.0028594765 -0.012505225 -0.011206223 0.012850716 -0.0021950146
0.049815547 0.024751926 0.021222623 0.02043798 0.022069434 -0.0008567973 0.006655208 -0.02708498
0.015002968 0.009375144 0.0036334065 -0.00042567853 0.009341567 0.026659843 -0.0092709325 0.0054359473
-0.012153345 0.007603949 0.01021411 0.01629749 0.015562906 -0.011183498 0.002946164 -0.0042368537
-0.009364468 -0.008933067 0.039574265 0.0041567995 0.019059872 0.022941919 -0.02801159 -0.019959362
-0.007915569 -0.020364342 -0.0313474 0.008968629 0.024092702 0.007742923 -0.0293846 0.06165928
0.09588722 0.006602136 0.025116142 0.011350613 0.027864214 0.025016267 0.019377377 0.016224513
0.008793965 0.0016132309 -0.01941094 -0.015482944 -0.013591169 -0.044030137 -0.014110231 -0.013987909
-0.02500685 -0.015432461 -0.023864174 0.052887205 0.01809592 -0.0028765947 0.02311157 -0.01288585
-0.019745588 0.077696 0.088379525 -0.0078064054

gcn_layer3.batchnorm.running_mean f4 [100]
00000000: c838 773b 82fd d13b 78e6 4cbb 1f77 1a3c
00000010: e579 073c f342 1e3c d790 433c 0aa3 813c
00000020: 74e6 123c 99ce 433b 2a4b 443c 2ff8 463c
00000030: 64cd 5f3c 3aba 8a3c 4109 c63b 34d0 d93b
00000040: a015 0a3c 54c8 393c afad ba3b ba2a 3c3c
00000050: 2e6f 2e3c 77cf 0d3c 68e2 853c a52e 4a3c
00000060: 4cad 3f3c 1c57 5b3c 60af 2c3c bd59 373c
00000070: e0cd 853c 45f8 ae3c a78b ffb9 a366 893c
00000080: 89f6 873b 50f6 e23b 9654 903b 443f b23c
00000090: aa92 423c 0abf 303c 04a7 c63b ebe9 243c
000000a0: a676 853c b1e6 6e3c d1b7 7b3b d914 083c
000000b0: 9acc 243c 23c5 4b3c 3385 083c 78e8 983c
000000c0: d7d7 183c 6e53 453b f684 a33b fb60 343c
000000d0: b039 663c ee7e 2e3c 9dda 063c 6c36 3e3c
000000e0: 7eef 313c 9c26 403c eda8 0d3c 22be d83b
000000f0: 27ed 013c 0646 db3b f52c 313c 4779 623b
00000100: e86c a83c fc60 1c3b c906 593c e1b6 7d3b
00000110: 080c 5b3c e5e9 3e3a 000a 113c 8c84 8d3b
00000120: 8f08 813c f48b 023c afcf 013c cbfb 823c
00000130: acad de3b 59aa 223c 7feb 0e3c a819 8f3b
00000140: b516 7c3c e695 8a3b 61e9 273c b20d 663c
00000150: 3b3e 383c e698 713c 0470 353b f4c0 0f3c
00000160: fb14 503b b0cc 2a3c dc48 083c 5ebd 7c3c
00000170: 3d91 193c 3868 853c d6d5 353b ff92 483c
00000180: 401e 2b3c 7898 513c 1eba 6f3b 7a81 9e3c
0.0037723053 0.0064083943 -0.00312653 0.009427815 0.008268808 0.009659517 0.011936388 0.015824813
0.008966077 0.002987778 0.011980811 0.0121441325 0.013659809 0.016934503 0.0060435836 0.006647134
0.008428007 0.011339266 0.005696974 0.011484796 0.0106466245 0.0086554205 0.01634331 0.0123402225
0.011699032 0.013387468 0.0105398595 0.011190829 0.01633352 0.021358619 -0.0004874144 0.016772574
0.0041492623 0.0069263354 0.0044046147 0.021758683 0.011875788 0.010787735 0.0060623903 0.010065536
0.016291928 0.014581368 0.0038409124 0.008305752 0.010058546 0.012437138 0.008332538 0.018665537
0.009328804 0.0030109542 0.0049902154 0.01100945 0.01405184 0.01065038 0.008230832 0.011609655
0.010860322 0.011727955 0.008646232 0.0066144625 0.007930077 0.006691697 0.010813941 0.003455715
0.020559743 0.0023861518 0.013246247 0.003871374 0.013369568 0.0007282778 0.008852482 0.0043187793
0.015751151 0.007967938 0.007923051 0.015989205 0.0067956056 0.009928309 0.008723139 0.004367072
0.015386273 0.004229295 0.010248513 0.014041351 0.011245306 0.0147459265 0.0027685175 0.008774031
0.0031750787 0.010424778 0.008318152 0.015426008 0.009373006 0.016285047 0.0027745864 0.012242078
0.010444224 0.012792699 0.003657944 0.019348849

gcn_layer3.batchnorm.running_var f4 [100]
00000000: 7a98 293f a2d0 2a3f 69c0 2b3f 7c71 2b3f
00000010: b553 2b3f 0b61 2d3f 27e2 2a3f 7674 2b3f
00000020: d516 2b3f 9497 2c3f d85d 2b3f 0cc6 2d3f
00000030: c253 2c3f 52d4 2b3f 4bbf 2b3f 40fd 2a3f
00000040: f6d5 283f f372 2b3f 69a0 2d3f deca 2d3f
00000050: 93c0 2a3f 558d 2c3f 1f4a 2d3f 14c6 2b3f
00000060: 926e 2c3f 83b0 2d3f 2d7d 2d3f 7d80 2d3f
00000070: b270 2a3f 3664 2a3f bfab 2a3f c624 283f
00000080: 03f0 2c3f 3665 2b3f 4df4 2a3f 6b29 2b3f
00000090: 9250 2b3f 7d70 2a3f a828 293f a2e6 2b3f
000000a0: 877d 2d3f 8b5d 2e3f 4288 2f3f bcc0 2d3f
000000b0: 03a0 2a3f 6242 2b3f c8fb 2c3f 831d 2d3f
000000c0: 3d11 2d3f 3759 2d3f e974 2c3f 2af8 2b3f
000000d0: deb3 2a3f 9e97 2a3f b4aa 2b3f 2399 293f
000000e0: 48d5 2a3f 55f6 2c3f a587 2e3f 5277 2d3f
000000f0: 7490 2d3f fdb1 2b3f a3d2 2b3f e9e0 2a3f
00000100: 872e 2a3f 86cf 2c3f 0545 2d3f 0b6c 2b3f
00000110: a49b 2b3f 6df6 2d3f 4e2c 273f 94d7 293f
00000120: 27dc 2b3f 36e2 283f 1014 2b3f 519e 293f
00000130: 912a 2b3f c5b0 2a3f 9b59 2c3f 7a13 2c3f
00000140: a996 2c3f 8f48 293f b148 2e3f 0048 2c3f
00000150: 8b36 2c3f 4253 2d3f 82c9 2d3f fbaf 2b3f
00000160: ba34 2a3f a3bd 2c3f 4538 2b3f 4bda 2a3f
00000170: 9cc5 2a3f 4777 2a3f 1972 2c3f 6a3f 2c3f
00000180: 17ff 2e3f dc23 2e3f ede5 2e3f 6031 2a3f
0.66248286 0.667246 0.6709047 0.6697004 0.669246 0.677262 0.6675133 0.6697458
0.66831714 0.6741879 0.6694007 0.6788032 0.67315304 0.6712085 0.67088765 0.6679268
0.6595148 0.66972274 0.6782289 0.67887676 0.66700095 0.67403156 0.67691225 0.6709912
0.67356217 0.6784746 0.6776913 0.6777418 0.6657821 0.6655916 0.66668314 0.6568111
0.6755373 0.6695131 0.66779023 0.66860074 0.66919816 0.66577893 0.6607766 0.6714879
0.67769665 0.68111485 0.6856729 0.67872214 0.6665041 0.6689817 0.6757169 0.67623156
0.6760443 0.67714256 0.6736589 0.67175543 0.66680706 0.666376 0.6705735 0.66249293
0.6673169 0.6756337 0.6817573 0.67760193 0.6779854 0.67068464 0.6711828 0.66749436
0.66477245 0.67504156 0.6768344 0.66961735 0.67034364 0.6795414 0.6530198 0.6634457
0.671328 0.6597017 0.6682749 0.66257197 0.66861826 0.6667598 0.6732423 0.6721722
0.6741739 0.6612634 0.6807967 0.67297363 0.67270726 0.67705166 0.678856 0.670654
0.66486704 0.6747686 0.66882735 0.6673934 0.6670778 0.6658825 0.673616 0.6728426
0.68357986 0.6802347 0.6831959 0.6648159

temporal_layer.conv_1.weight f4 [1, 180, 4]
00000000: 680f 8d3b dc7a 40bd 588d 81bc 5750 d3bc
00000010: bc1f ce3c 243e 0d3b c82b 093b 1cc8 fc3c
00000020: 8b4c 0fbd 790d d3bc 81c8 173c f352 09bd
00000030: 12f4 5d3c 5883 8b3b 36f4 f1bb 2383 fbbc
00000040: d29e abbc fb36 1b3c 26d5 0fbc 3995 c43c
00000050: 1602 183d b8e5 2b3c 2c01 893c 2902 b43c
00000060: ca13 c73c e9a4 a83c e6c5 8e3c c2a2 39bc
00000070: ab70 be3c d820 c0bc f429 863a 3bdb 953a
00000080: 7935 cb3c ab25 debb e236 c9bc 918f d0bc
00000090: 4515 1abd f8a0 95bc 87ed 713c fcaa a5bb
000000a0: 944f 673b 8c89 44bd 713d 05bd 64d6 ecbc
000000b0: ff62 163d 6709 c93c 936b 843b ecbf 01bc
000000c0: e5af 873c 7b21 0ebc a5b5 f4bc 354d 933b
000000d0: c669 ab3c 2098 09bd fe0e a6bc 2fac bbbc
000000e0: cc73 3b3c ce53 cb3a 8c18 6cbc b503 35bc
000000f0: b6aa b9bc ba14 a13c 6fea d13c 29ca c93c
00000100: 1255 023b 56dd 9cbc 966c 4fbc 1a93 4d3c
00000110: 930d c13b be1d 37bc 308f b6bc 94ad 0c3d
00000120: de4c ff3c eca5 d3bb 96e7 f4bc 9104 a83c
00000130: 8240 c7bb 4e9a 3cbd be09 533c 7831 d0bb
00000140: 1575 b0bc 13ee 843c 4f1a 1a3c 7325 f7bc
00000150: bdaf 06bc 3224 95bc deaf bc3c a346 92bc
00000160: 04b7 e03c 8989 6b3c aa3b 9bbc 2db9 cbba
00000170: 803c a0bc 420f 5d3c 5194 98bc 1989 00bc
00000180: fc69 b53c 89f5 643c a5ae 93bc 25ad fbbc
00000190: c06c 9bbc 75e1 8abb 23f2 433c e2eb ffbc
000001a0: 40cb e23b 491f aa3b 8d02 b5bc a3e6 903c
000001b0: 4740 11bd d97e f5bc 4735 15bd 34fa b2bb
000001c0: dc21 a4bb e706 d03c 8985 08bc 08b9 b53c
000001d0: 9d33 c93c a434 48bb 560f ecbc 4be8 18bd
000001e0: 1b65 03bd 1e74 0b3c d7f8 563c 4858 e1bc
000001f0: 4445 cbbc 38a5 cb3b dfc7 0c3d 5a48 61bc
00000200: 4f12 dcbc 0a92 17bd 4866 e9bb 750c b13c
00000210: 8bd4 7abc 1d91 7d3c eab3 253c a5da 04bd
00000220: 757f 853c 7f7b 863c f4f8 243b 823c 153d
00000230: 6190 e439 63c2 543c d79d 263b 1993 d43c
00000240: 3809 84bc 10a2 afbc e0fc 00bd 0b08 2ebd
00000250: 52c8 b03c 8963 dd3c 9e3e 38bd 6c5e 213b
00000260: 4860 9f3c 5e4b 0a3d fbd0 3fbc 15cd 80bb
00000270: 6f0e e13b e3f2 17bc 5f75 b8bc f391 893c
00000280: ad01 55bb efd6 97bc ae53 86bc d021 653c
00000290: deae 003d 7479 6b3c d9a3 bdbc 3091 403b
000002a0: 6aa7 993c 3498 57bd af98 9c3c e46f 063b
000002b0: 9540 733c e31e cfbc e775 27bd 7f65 883c
000002c0: fbb4 ddbb a29a c7bc d892 ce3c e7de 11bd
000002d0: e381 28bc 393b b0bc 3e3a efbb 559e a73c
000002e0: d1d1 25bc c60f 70bc bdfc 08bc 40f9 1d3c
000002f0: 36cd c7bc e5fa c73c 8c5c f93c 478d afbc
00000300: bfa7 8fbc 86b4 ff3c fdc0 edbc 7333 673a
00000310: 8f08 6a3c 7cb3 3b3c 35a1 643c 7093 e2ba
00000320: 566b 363c e497 893b abde 71bd 4234 abbb
00000330: 9b38 433c 64a1 cabb 095b 943c 8974 4b3c
00000340: b781 c8bc 4ed6 f13a 1f77 b03c 9f1d 463c
00000350: f18b 983c dc5b b1bc f4a8 053d 10e8 fb3c
00000360: 4768 0ebd b4f9 053c 4a83 a8bc a2e7 e2bc
00000370: 92c3 29bd 0222 4ebc 57d8 913c ac50 40bd
00000380: 24ef 0f3d 638d 163c 96ce 4b3d dffd 0cbc
00000390: 4aba a2bc 1136 5a3c f969 473c 2ad4 f2bc
000003a0: c2d9 f43c 1699 6b3c 6389 a03c 25ab 183d
000003b0: 3100 56bd 9d28 3dbd 22b7 1fbc 9765 a0bc
000003c0: aac7 53bd 2426 d0bc 30fd 62bd 4ce7 603b
000003d0: a4a0 4cbd 79b2 993c 4df8 17bb f4b1 d4bc
000003e0: f370 eebb c5c2 2dbc 02a4 e4bb 6627 f139
000003f0: ab9a 64bc 97ad 02bd e7b5 7abc c460 a23c
0.004304815 -0.046992168 -0.015814468 -0.025795145 0.025161617 0.0021551931 0.0020930637 0.030857138
-0.034985106 -0.02576326 0.009264112 -0.033526372 0.01354696 0.0042576008 -0.0073838485 -0.03070218
-0.020949755 0.009473558 -0.008778846 0.023996936 0.037111364 0.010491781 0.016724192 0.021973686
0.024301428 0.020586448 0.01742835 -0.011330308 0.023247084 -0.023453161 0.0010235892 0.0011433134
0.024805771 -0.0067793927 -0.024562303 -0.025459083 -0.03761794 -0.018265232 0.014766104 -0.0050557833
0.0035295235 -0.047982737 -0.0325293 -0.028910823 0.036715504 0.024540616 0.004041144 -0.007919293
0.016563365 -0.008674975 -0.029871771 0.004495288 0.02092446 -0.033592343 -0.02027082 -0.022909252
0.011441182 0.0015512647 -0.014410149 -0.011048247 -0.02266441 0.019663204 0.025624482 0.02463253
0.0019887132 -0.01914851 -0.012660166 0.012547279 0.0058915108 -0.011176525 -0.022285074 0.034345224
0.031164583 -0.0064589884 -0.029895585 0.02050999 -0.006080688 -0.046045594 0.012880741 -0.0063535534
-0.021540204 0.016226804 0.0094056865 -0.030169224 -0.00822061 -0.018205736 0.023033079 -0.017855948
0.027431019 0.014376053 -0.018949348 -0.0015542858 -0.019560099 0.013492407 -0.01862541 -0.007845187
0.022145264 0.013974556 -0.018027613 -0.03072221 -0.018972754 -0.0042383024 0.011959585 -0.031240407
0.006921202 0.0051917178 -0.022095943 0.017688101 -0.03546169 -0.029967712 -0.036427762 -0.0054619554
-0.005008919 0.025393916 -0.0083326185 0.022182956 0.024560744 -0.0030548954 -0.028815906 -0.037330907
-0.032078844 0.008511571 0.0131208515 -0.027507916 -0.024813302 0.006214764 0.0343703 -0.01375016
-0.026864199 -0.037004508 -0.0071227886 0.021612385 -0.015309463 0.015476492 0.010113696 -0.03243508
0.016296128 0.01641631 0.0025172802 0.036434658 0.0004359512 0.0129857985 0.002542367 0.025949048
-0.016117677 -0.021439582 -0.03149116 -0.04248814 0.021579895 0.027025001 -0.04498159 0.002462293
0.01945509 0.033763282 -0.01170754 -0.0039306977 0.0068681757 -0.009274217 -0.022516904 0.016793227
-0.003250222 -0.018535106 -0.016397323 0.013985112 0.031416766 0.014372218 -0.023149418 0.0029383413
0.018756587 -0.052635387 0.019115774 0.002051347 0.0148469405 -0.025283283 -0.040883925 0.01664996
-0.0067659593 -0.024365727 0.025216505 -0.035612967 -0.010284874 -0.021512615 -0.007300644 0.02046124
-0.010120825 -0.014652198 -0.008361039 0.009641945 -0.024389844 0.024411628 0.030439638 -0.021429671
-0.017536042 0.03121401 -0.029022688 0.0008819617 0.014284267 0.011456367 0.01395445 -0.0017286371
0.011133989 0.004199015 -0.059050243 -0.0052247355 0.011915351 -0.00618379 0.018109815 0.012417921
-0.024475915 0.0018450709 0.021541176 0.012092023 0.018621417 -0.021650247 0.03263183 0.030750304
-0.034767415 0.00817721 -0.020570416 -0.027698342 -0.041446276 -0.01258135 0.017803354 -0.046951935
0.03514017 0.009188983 0.049757563 -0.008605449 -0.01986422 0.0133185545 0.012171262 -0.029642183
0.029888991 0.01437976 0.019596761 0.03727259 -0.052246276 -0.04618131 -0.009748252 -0.019579692
-0.051704086 -0.025408812 -0.05541724 0.0034317551 -0.049957886 0.01876186 -0.002318877 -0.02596376
-0.007276648 -0.010605519 -0.006977559 0.00045996456 -0.013952891 -0.03190383 -0.015302158 0.019821532
